weights/weights_trained_on_real.pth (torch, 811776 bytes, 8 tensors)

weight f4 [128, 15]
000000 7e 30 17 3a 7f ff e7 3d ac 0b 40 be 0b af 0f be
       0.0005767419 0.11328029 -0.18754452 -0.14031617
000010 7e c5 4e 3e 11 51 3a bc 29 cc 36 be 75 fc 87 be
       0.20192525 -0.011371867 -0.17851318 -0.26559797
000020 09 3c 36 3e 51 52 14 3a ca d3 94 bc 4a ba 40 3d
       0.17796339 0.0005658018 -0.018167395 0.04705266
000030 9b e6 a2 be a1 d1 de 3d d8 db 4b 3e 6e 7d 28 3d
       -0.31816563 0.10879827 0.19908082 0.041135244
000040 74 85 d7 3d 56 fa 8a 3e 18 20 56 3e ee 39 1c be
       0.10523501 0.27144116 0.2091068 -0.15256473
000050 fe e5 26 bf cd 7b ca be a8 5c ef 3e c1 98 9b bd
       -0.6519469 -0.39547578 0.4675038 -0.07597495
000060 95 49 2a 3e 7b ee ae 3d fe c9 f6 3d 21 e9 49 bd
       0.16629632 0.0854158 0.12050246 -0.049294595
000070 5b b5 a0 3d 32 0b 0d 3d 42 ab 1f 3e da e1 6d be
       0.07847091 0.034434505 0.15592673 -0.23230687
000080 97 84 b6 ba eb a0 64 3c 36 52 8d be 9d 6b 86 be
       -0.0013925013 0.013954381 -0.27601784 -0.26253977
000090 45 5d 89 bd 07 97 16 be e3 d4 4b 3e e6 15 55 3d
       -0.06707243 -0.1470605 0.19905429 0.052022837
0000a0 f3 db e5 3d 35 c5 a5 bd df 99 3c 3e 68 26 53 3d
       0.112235926 -0.08094255 0.18418072 0.0515503
0000b0 d7 24 56 be c6 17 9f be 77 3e cf be 86 ad 77 3e
       -0.20912491 -0.31072825 -0.40477344 0.24187288
0000c0 1a b8 e3 3e df ce 85 be 35 89 73 3e cf 79 07 3e
       0.44476396 -0.26134393 0.23782809 0.1323006
0000d0 b2 6d a8 be 6b 8b f4 3d 0f 85 e7 3d ae ec 67 be
       -0.3289619 0.11940654 0.11304676 -0.2264888
0000e0 b4 64 b0 be fe a3 43 3e c4 6f 32 be 5f b1 8d 3e
       -0.3445183 0.19105527 -0.17425448 0.27674386
0000f0 1d 7b 2c be df 6c 1a bc 42 78 8b be d5 89 ac 3e
       -0.16843839 -0.009425371 -0.27240187 0.33698907
000100 b1 eb 0b be 17 bd 90 3b 91 df 94 3d 88 49 57 3e
       -0.13664128 0.0044170725 0.072692044 0.21024144
000110 f6 df da be e9 39 3e 3e 46 8b 5a be 15 b0 4c be
       -0.42748994 0.18576778 -0.21342191 -0.19989045
000120 56 44 1e be 33 4f 31 3d 1c 48 24 3d 3c 0f 4a be
       -0.15455756 0.04328842 0.04010783 -0.19732374
000130 ce 9a 3c 3d 07 4b 15 be aa a0 29 bc 03 3f 41 3e
       0.04604607 -0.14579402 -0.010353247 0.18871693
000140 b6 a6 85 bb ae 08 12 be 22 e5 4f 3e 7c 7f b8 bd
       -0.0040787114 -0.14261124 0.20302251 -0.09008691
000150 2b 69 35 be 86 93 02 be c1 8a 04 be b0 78 24 3d
       -0.177159 -0.12751588 -0.12943555 0.04015416
000160 ce c2 7a be 88 87 b3 bd 3c 1c 18 3e fc 82 f5 3d
       -0.24488375 -0.08766085 0.1485452 0.11987874
000170 d3 86 b4 3c c1 34 92 bd bc 15 80 be cb ce f0 bd
       0.022036945 -0.07138968 -0.25016582 -0.11758193
000180 53 9b 03 be c8 e3 5a be 43 9e 11 be b0 05 25 3e
       -0.1285222 -0.21375954 -0.14220528 0.16115451
000190 c9 f3 04 3e 94 c5 ba bd 51 15 14 be f6 1d 11 3e
       0.12983622 -0.09119716 -0.14461257 0.14171585
0001a0 d5 6d 78 be 33 21 46 bd 33 90 a3 3d 32 93 bd 3d
       -0.24260648 -0.048371505 0.07986488 0.09256591
0001b0 7f 4b 54 be ca ed 81 bd 45 25 5d be 2f bb b6 3d
       -0.20731924 -0.06344183 -0.21596248 0.08922421
0001c0 25 05 0f be e4 9a 12 3e be a9 e5 3d a3 38 b3 bd
       -0.13966806 0.14316899 0.112140164 -0.08751037
0001d0 58 bf 16 3d 47 c8 93 bc 69 1c d4 bd 0d c0 40 be
       0.036803573 -0.018039836 -0.10356981 -0.18823262
0001e0 2b 82 5f 3e f8 c1 3d 3e 0d e7 10 3e 1e 6f f6 bd
       0.21826999 0.18531024 0.14150639 -0.12032913
0001f0 3e b1 c9 3d c0 98 39 be e1 0d 2a 3c 39 05 8f be
       0.098482594 -0.18124676 0.010379286 -0.27933672
000200 bf b1 6c be 57 9e 17 3e 98 ae 8a be a3 e3 88 3d
       -0.2311468 0.14806496 -0.2708633 0.06684043
000210 70 70 72 3d 93 51 fe 3c ab 66 e6 bc 74 78 da 3d
       0.05918926 0.031044757 -0.028125128 0.10667506
000220 8a d5 17 3e e4 23 4a 3e 67 f4 f2 3e 3c 18 fd bd
       0.14827552 0.19740254 0.4745209 -0.12358138
000230 b4 23 f2 be 37 ed 17 3e 0c 1a f3 3e 63 a6 6d be
       -0.47292864 0.14836584 0.4748081 -0.23208003
000240 07 83 67 3d 50 70 b8 bd 66 57 ee bc d7 de 50 bd
       0.05652144 -0.09005797 -0.02909441 -0.050993767
000250 4a 28 ae bb 38 e2 de 3c 1e a2 69 be 69 2c 01 be
       -0.0053148614 0.027207479 -0.22815749 -0.12614597
000260 0f cb e9 3d 64 c1 cc 3c e9 ee 73 3d 63 07 72 be
       0.114156835 0.02499456 0.059554014 -0.2363563
000270 7b 62 8d bd 5b 42 51 bd fc 6f 20 bc 82 a1 7d bd
       -0.06903549 -0.051088672 -0.009792324 -0.061921604
000280 2f ef 02 bd 1e 50 72 3d 70 29 fa 3c 22 8d 00 be
       -0.031966385 0.059158437 0.030537337 -0.12553838
000290 86 37 94 bd d9 ef 04 3e 06 c9 5c be 12 6d d8 3d
       -0.07237153 0.1298212 -0.2156106 0.105676785
0002a0 c4 ac ec be 5a aa 43 be cf 5a b1 3e 77 2e f4 ba
       -0.4622556 -0.19107953 0.34639594 -0.001862957
0002b0 33 c0 0e be df b2 24 be ef 5e 7e 3c 0a 1f 01 be
       -0.13940506 -0.16083859 0.015525564 -0.12609497
0002c0 e6 5b a0 be b6 11 c9 ba e8 ae 41 be 51 e2 07 bd
       -0.31320113 -0.0015340361 -0.18914378 -0.033174817
0002d0 5d 1d 8a 3e 07 db 07 be a0 83 ec 3e c2 55 59 bf
       0.26975527 -0.13267146 0.46194172 -0.8489648
0002e0 11 ed 44 3e fc 10 4c bd bb 96 d3 3d 55 44 90 3d
       0.19231059 -0.049820885 0.10331484 0.07044283
0002f0 31 46 64 3d 9a 4b b8 bb 2e 7d 18 bd 48 17 82 bd
       0.055731002 -0.005624247 -0.037228756 -0.06352097
000300 f3 62 25 be 2b 0a b3 3d 7b cb 1a 3e 8f 5b 3b 3e
       -0.16151027 0.08742174 0.15116684 0.18296646
000310 b0 9b 11 bd d9 5c 7e 3e 10 d4 5f be 14 8c 5e be
       -0.035548866 0.24840106 -0.21858239 -0.21733123
000320 9b f0 30 bd 92 b7 44 be 04 00 83 bd 61 ce 9d bd
       -0.04319821 -0.19210652 -0.06396487 -0.07705379
000330 bc 81 00 bd 6d 5e ba bd eb 92 75 be 5f 04 30 3e
       -0.031373724 -0.091000415 -0.23981826 0.17189167
000340 2d 38 eb bc f8 9c ee bd 23 58 eb 3c 95 45 e0 3d
       -0.02871331 -0.11651033 0.02872855 0.10950772
000350 e9 ff db 3e 31 33 ea bd 05 7f c1 3d 25 78 8a be
       0.4296868 -0.11435545 0.09448055 -0.27044788
000360 00 c3 3b be 9b ab 9b 3d 72 99 8a 3e a1 04 26 be
       -0.18336105 0.076010905 0.27070194 -0.16212703
000370 d9 d0 d2 bd 0d 0e f9 3d 75 92 7f 3e b3 7b 86 bd
       -0.10293741 0.12160883 0.24958213 -0.065665625
000380 cc 00 20 3e c7 a3 d7 3d 15 87 b0 bd bd dc eb 3d
       0.15625304 0.10529285 -0.08619515 0.11516712
000390 45 9e a9 3d 22 80 f7 3d 7d b9 98 be e6 93 87 be
       0.08282141 0.12084986 -0.29829016 -0.26480025
0003a0 2f 32 8a 3d ae 54 f6 bc 8d 3a 13 3d e6 83 f2 bd
       0.06747853 -0.030069675 0.03594451 -0.11841564
0003b0 cc f8 a5 bb 86 ec 6a bd 4c af 15 bd 45 1d 10 3d
       -0.0050650593 -0.057354473 -0.03654413 0.035184164
0003c0 12 71 3d 3e 7d 16 0b be 55 d0 ca 3e 8d 94 9f be
       0.18500164 -0.13582797 0.3961207 -0.31168023
0003d0 53 8b d6 3c 72 74 cc bc 04 0f a0 be 3a 57 fc bd
       0.026189482 -0.02495787 -0.31261456 -0.12321325
0003e0 fd 62 02 3f 19 29 c3 bd 6a b6 de bd e5 8b d9 3d
       0.50932294 -0.09529323 -0.108746365 0.10622386
0003f0 c9 7b 32 3b ea 36 f3 bb 31 f4 b9 bc dc 33 31 be
       0.0027234426 -0.0074223178 -0.022699447 -0.17304939

bias f4 [128]
000000 f5 c7 00 3d 7e 07 53 be 9c 43 b3 bd c8 e6 12 3e
       0.031440694 -0.20608327 -0.0875313 0.14345849
000010 10 50 b6 3e 95 9f 1d be 05 76 ab bd 7c f1 90 3a
       0.35607958 -0.15392907 -0.0837212 0.0011058296
000020 a0 4e d6 bd 16 16 da bd ee ef f3 bd 92 9a 6b 3e
       -0.10464215 -0.10648744 -0.11910997 0.23008183
000030 5f a8 a8 be 62 2b 74 be 91 f4 a0 be ce cd 39 3e
       -0.32940957 -0.23844674 -0.3143659 0.18144915
000040 c4 7c 7f bd 32 c9 71 3d 1f 7d fb bd be df ac bc
       -0.062374845 0.059029765 -0.12279724 -0.021102782
000050 9a 5d 8f 3e 79 d8 46 be cd 03 2e 3e db f8 c0 bd
       0.280011 -0.19418515 0.16993637 -0.094224654
000060 5d ee 8c 3e 0d 36 c1 bc 45 2a 31 be dc 6f 38 be
       0.27525607 -0.023585344 -0.17301281 -0.18011421
000070 16 68 25 be 31 59 5f be 25 74 7b be 15 38 5c be
       -0.16152987 -0.21811368 -0.24556024 -0.21505769
000080 59 e2 60 3d dd 63 57 be bf 7c 62 be 65 42 15 be
       0.054903362 -0.21034189 -0.221179 -0.14576109
000090 8f 50 34 be e5 9c de 3d ff 0b 8f 3d d3 ef 1c be
       -0.17608856 0.10869769 0.0698471 -0.1532586
0000a0 7a 4a 1c bc 04 43 5a bd df f5 96 be ed 82 2a be
       -0.009539241 -0.053286567 -0.2948446 -0.16651507
0000b0 b6 ab a1 bb 51 0f 07 be 1f 02 32 3e a8 44 ea 3b
       -0.0049337996 -0.13189436 0.17383622 0.0071492977
0000c0 60 60 33 be cf 7b a1 3d 8a 13 d2 3a 2a 62 e4 3c
       -0.17517233 0.07884943 0.0016027552 0.02787884
0000d0 80 53 6d 3e 0d fd 5f bc b8 2b 8a be 07 48 a6 3d
       0.23176384 -0.013671172 -0.2698648 0.08119207
0000e0 e4 8f 7a be 00 3b 82 bd 77 9c 9d 3d 10 86 28 be
       -0.24468952 -0.063589096 0.07695859 -0.16457391
0000f0 e1 59 41 be c2 cf 9f bd d4 ea f1 3c ae 5e be 3c
       -0.18881942 -0.078032985 0.02953092 0.023238506
000100 af 8b 19 be 1f 8a 97 bd ad 4b 0a 3e dd a7 1a be
       -0.14994691 -0.073993914 0.1350543 -0.15103097
000110 5c d9 7a be ab 82 26 be cb 34 1a be 08 76 93 bd
       -0.24496979 -0.16260783 -0.15059201 -0.07200247
000120 c2 b3 13 be 9f fe ff bd 69 43 cb 3d 27 71 56 3e
       -0.14424041 -0.12499737 0.09924967 0.20941602
000130 17 5d 25 be 16 7a 8d be 76 31 0a 3e e5 bf 81 be
       -0.16148792 -0.27632207 0.1349543 -0.25341716
000140 a1 84 b0 3d 18 f8 49 be 55 30 8e bd d8 cb 0a 3d
       0.08619047 -0.19723547 -0.06942812 0.033885807
000150 e5 b2 4b bd 20 c9 e3 3d 5b 48 bb bd ef 48 a3 bd
       -0.049731154 0.11122346 -0.0914466 -0.07972895
000160 19 0c 8e 3e bc d2 f9 bd ec ef 91 3d a9 8e c9 bd
       0.27743605 -0.121983975 0.071258396 -0.098416634
000170 e3 6d 07 be d4 cc c4 be 8c 05 16 bd 6c fa b7 3d
       -0.13225512 -0.3843752 -0.036626384 0.08983311
000180 15 14 08 3e a7 54 67 3d e6 2d 39 bd 63 7c 72 be
       0.1328891 0.056477215 -0.045209788 -0.23680262
000190 0a d8 1f 3d d7 f2 5b 3d 47 bb 83 3e df 1d 81 3e
       0.03902439 0.053698387 0.2572882 0.25218102
0001a0 25 e6 25 bd 3e 45 2c 3e 4e ad e9 bd 30 32 80 3c
       -0.040502686 0.16823289 -0.11410008 0.015648931
0001b0 6c 75 96 bd 86 de 38 3e be a5 6f 3e 4e cf 46 3e
       -0.07346615 0.18053636 0.2340307 0.19415018
0001c0 61 54 c8 3d c5 93 f3 bd e7 fe 60 be 9b 25 79 3e
       0.09781719 -0.11893419 -0.21972238 0.24330752
0001d0 13 cc db bc 73 61 da bd fa be 2b 3e db 25 80 3e
       -0.026830709 -0.10663118 0.1677207 0.2502888
0001e0 0f 82 70 be 9a 66 6f bd 9f 51 56 3d 60 b1 2b be
       -0.23487113 -0.058447458 0.052323934 -0.16766882
0001f0 ba 7e 76 bd 25 7b 1c 3e ea 9a 07 3e cd 7f 5d be
       -0.06017945 0.15281351 0.13242689 -0.21630783

weight f4 [512, 128]
000000 61 7e 1e 3d 86 25 26 bd 5b 29 69 3c 91 fb 77 bd
       0.038694743 -0.04056313 0.014231051 -0.060542647
000010 5f f7 4a bd b2 24 b4 bd 03 cb 51 bd 37 0d 27 bd
       -0.049552318 -0.087960616 -0.051218998 -0.040784087
000020 84 73 a8 bd c9 08 8b bd 1f 5e bf bd 54 17 20 bc
       -0.08225158 -0.06788785 -0.09344124 -0.009771187
000030 0c 9a 1e 3d 80 b0 e1 bc 34 43 f3 bc ff bc 73 bd
       0.03872113 -0.027549982 -0.02969513 -0.059506413
000040 78 8b a4 bd e3 7b d1 3b aa 4c 40 3d 10 f9 34 3c
       -0.08034414 0.0063929423 0.046948113 0.011045709
000050 d8 ab ea bd 0b 1d 15 3d bd 28 ae bd cb fe f8 3a
       -0.11458558 0.03640465 -0.08503864 0.0018996833
000060 02 95 15 3d 05 ae b3 bd 35 75 95 bd 8a 19 0e bd
       0.036519058 -0.08773426 -0.07297746 -0.034692325
000070 46 22 70 bd c5 54 b1 bd 12 43 af bc f5 50 8b 3d
       -0.058626436 -0.08658747 -0.021394286 0.06802551
000080 87 48 fa bd f5 00 4f bd ea 89 a6 bd e7 ad 21 bd
       -0.12220865 -0.050538022 -0.08131774 -0.039472487
000090 cd 90 ff 3c 87 c4 bc 3c 82 65 15 3d 87 07 3e bc
       0.031196976 0.02304293 0.03647376 -0.011598474
0000a0 89 3d 4f bb e8 06 d7 bd ea 19 c8 3d 47 57 9f bd
       -0.0031622371 -0.10499364 0.09770568 -0.07780319
0000b0 ec 09 2d bd 59 e9 71 3d 81 14 ee bd a9 14 a1 bd
       -0.04224579 0.05906043 -0.116250046 -0.07865269
0000c0 d4 ba 4f 3d 12 05 01 3d 6a 57 3b bd 34 75 00 bd
       0.050715283 0.031498976 -0.04573766 -0.031361774
0000d0 77 c7 2e bd 3f 3e f5 bd c9 9c 2d bd 63 98 b2 bc
       -0.042670693 -0.11974763 -0.04238585 -0.02180118
0000e0 65 89 55 bc 15 e0 9d bd c5 01 a5 bd fd 0f b5 bd
       -0.013033246 -0.07708756 -0.08056978 -0.0884094
0000f0 e8 6e e5 bd 8f 6a 3d bd 72 fc a4 bd ed f7 8d bd
       -0.11202794 -0.0462442 -0.080559626 -0.06932054
000100 d2 c1 66 3a 34 4d 65 bd 04 98 1d 3d aa c7 4d bd
       0.0008802685 -0.05598183 0.03847505 -0.050239243
000110 00 b4 a6 bd f1 00 27 bd dc 1d e4 bd 9d f1 10 be
       -0.08139801 -0.040772382 -0.11138508 -0.14154668
000120 75 7e 3e bd 02 19 cb 3d f4 b8 5a 3d 06 55 e0 bd
       -0.046507318 0.09916879 0.05339904 -0.10953717
000130 21 7a 9d bc ff 0c 01 be 3c 9a 84 bd e0 38 7f bd
       -0.019223275 -0.12602614 -0.0647473 -0.0623101
000140 b0 79 99 bd d7 22 ae bd d1 d4 3d bd 06 3a 99 bd
       -0.07493913 -0.08502739 -0.046345536 -0.0748177
000150 22 fe 54 bd dd 04 28 bc 7f a3 a1 bd c4 a1 91 3c
       -0.052000172 -0.010255066 -0.078925125 0.017777331
000160 87 10 b2 3c 5e b7 92 3c 00 0a 1b bc 5d 27 d5 3c
       0.021736396 0.017909702 -0.009462833 0.026019746
000170 86 42 db bd 7a 6a 6f bd 87 2e 20 bc b3 32 9c bd
       -0.10706048 -0.058451153 -0.009776718 -0.076268576
000180 c3 68 e5 bd 75 08 59 bb 18 39 78 bd 36 ee 67 bd
       -0.11201622 -0.0033116613 -0.060601324 -0.05662366
000190 74 cd a5 bd 63 4c c7 3c e6 1c e3 bd d4 7a 41 bd
       -0.08095828 0.024328416 -0.11089496 -0.04723628
0001a0 a2 51 0f bd 88 87 5f 3d da d4 e5 bd 86 48 41 3d
       -0.03498996 0.054572612 -0.11222239 0.047188304
0001b0 9d aa f4 bc 7e 20 90 bd 44 9d 95 bd 82 17 06 be
       -0.029866511 -0.070374474 -0.07305387 -0.13094905
0001c0 f7 ea 13 3c 92 16 16 3d 0a ac 58 3d a7 9f d4 bd
       0.009028188 0.03664262 0.052898444 -0.10382014
0001d0 72 ca b9 bc cd ca 24 3d 07 64 33 bd b4 55 13 bd
       -0.022679541 0.04023247 -0.043796565 -0.035970405
0001e0 e9 44 0f be 74 ae 2a 3d 61 ec f8 bd e9 5d e8 bb
       -0.13991131 0.041670278 -0.12154461 -0.007091273
0001f0 d7 a6 77 3c 4a 38 04 be 30 21 d8 bd a6 39 a7 3d
       0.015115461 -0.12912098 -0.10553205 0.081652924
000200 07 08 e9 bd 29 85 1f 3e d4 af 93 3d ad 7c 20 bd
       -0.11378484 0.1557814 0.07211271 -0.0391814
000210 67 37 f7 3b dc 0c d7 bc bc a6 0b bd e8 68 dc bd
       0.0075444463 -0.026251249 -0.034094557 -0.10762197
000220 5e 17 3b be 6f 30 ed 3d 84 3c ae 3d e3 f2 24 bd
       -0.18270633 0.115815036 0.08507636 -0.040270697
000230 99 09 48 3d 40 25 47 3d 55 6d 29 3d 79 53 55 be
       0.048837278 0.04861951 0.041364033 -0.20832624
000240 61 67 46 be 1e 52 07 be 5e cd ca bd 07 b6 7a bd
       -0.19375373 -0.13214919 -0.09902452 -0.06120875
000250 38 49 9c 3d e5 7a 09 be f3 5b a5 bc 27 ac 53 bd
       0.07631153 -0.13425787 -0.020185446 -0.05167785
000260 d5 b9 e9 bd d9 a2 7e bc 05 74 11 be 0f 33 c1 3d
       -0.11412398 -0.015541756 -0.14204414 0.09433567
000270 d8 c1 09 bc 7d b1 9d bd f4 f8 36 be 64 47 89 bd
       -0.008408032 -0.07699869 -0.17868406 -0.0670307
000280 ce de 20 be 48 00 dc bc 8e 1b e3 bc a4 ad 67 bd
       -0.15709993 -0.026855603 -0.0277231 -0.05656208
000290 46 70 bf bd 18 f7 b7 bd 64 d5 be bd c1 f6 e1 bd
       -0.09347586 -0.08982676 -0.09318045 -0.11033393
0002a0 ec a8 88 3c e9 26 2a bd bf bd 0e be 56 f2 03 be
       0.01668211 -0.041541014 -0.1393957 -0.12885413
0002b0 e9 cd f6 bd 73 95 64 3d 03 55 01 3d f6 44 b0 bd
       -0.12050993 0.05580659 0.031575214 -0.08606903
0002c0 01 7c 53 3d d6 8f c8 bd a8 34 8a be b5 2b 45 bd
       0.05163193 -0.097930595 -0.269933 -0.048137385
0002d0 2c a8 d3 bd 9d 8c a7 bd f1 ef 3d bd f7 72 00 be
       -0.103348106 -0.08181117 -0.046371404 -0.12543856
0002e0 84 e4 e0 bd 9f 44 cb bd 98 09 3d 3e 63 51 0e be
       -0.10981086 -0.09925198 0.18460691 -0.13898234
0002f0 00 80 34 3e fd 84 47 3d 0c 30 7e be d9 8b 04 3e
       0.17626953 0.048710812 -0.24823016 0.12943973
000300 24 46 9a bd b0 b3 b7 bd ed cf 20 be cb 5e 07 3d
       -0.075329095 -0.089698195 -0.15704317 0.033049386
000310 20 72 d2 3c 20 20 9a bd a6 df 60 be 02 40 37 3d
       0.025689185 -0.075256586 -0.21960315 0.044738777
000320 87 07 58 bb 0f 91 8b 3d 95 c0 0f be 8b 13 de bd
       -0.003296347 0.06814777 -0.14038308 -0.10843571
000330 35 05 73 bd 7e de 08 bd 6d 18 4e bd 1c 0d 10 be
       -0.059331138 -0.03341531 -0.050316263 -0.14067501
000340 8f 6c 7b bd 93 08 fc 3c f8 c9 08 be 65 ab 27 be
       -0.061382826 0.030765807 -0.13358295 -0.16373976
000350 db e3 c1 bd cc bb a5 3c b9 20 ad bc 39 ff 18 bd
       -0.09467288 0.02023115 -0.021133767 -0.037352774
000360 af 2b bd 3d b6 c9 97 bb d4 59 5f 3e 09 0a 12 bd
       0.092368476 -0.0046322 0.2181161 -0.0356541
000370 b9 28 a1 bd bf fa 7d bd d2 7a 8b bd 84 53 be bc
       -0.07869095 -0.06200671 -0.068105355 -0.023233183
000380 3f 64 90 bd 37 54 63 3e ec 3d 3b be 54 59 9a bc
       -0.070503704 0.22200094 -0.1828534 -0.018841423
000390 a7 6d ea 3c 27 9e e9 3c 35 a7 52 bd e7 f7 06 3d
       0.02861674 0.028517796 -0.051428992 0.03295126
0003a0 1a a3 c8 3d 0f 26 51 3d a8 d5 d6 3c 83 99 9c bd
       0.09796734 0.051061686 0.026224926 -0.076464675
0003b0 5f 44 c0 bd b9 92 b6 3e 01 5c 77 3b 05 8b 13 be
       -0.09388041 0.35658816 0.0037744048 -0.144085
0003c0 04 d7 00 be e9 98 98 3c 0c 2f bd 3c 7f 9b 25 be
       -0.12582022 0.0186276 0.023093723 -0.16172598
0003d0 43 64 21 bd 96 aa 25 3d bc e8 b1 3b 39 18 2a bd
       -0.039402258 0.040445887 0.0054293554 -0.041527007
0003e0 f8 8a 44 bd c4 c4 3c 3b f4 b2 0d be b3 55 40 be
       -0.047984093 0.0028803805 -0.13837796 -0.18782692
0003f0 ef 0c fb bd 89 a6 5b be d8 61 cb bd e5 2d e3 3d
       -0.12258326 -0.21450247 -0.099307716 0.11092738

bias f4 [512]
000000 53 7f 71 bd 20 b8 d5 bd 47 1e 6b bd db 9b b0 bd
       -0.058959316 -0.1043551 -0.05740192 -0.08623477
000010 3a 8a 0b bd 8f 33 e6 3d 61 fa bc 3d cf 55 7b bd
       -0.03406737 0.11240303 0.092274435 -0.06136113
000020 76 94 1a 3d 86 e9 44 3c 63 30 c2 bd 87 b9 10 3d
       0.03773924 0.012018567 -0.09481885 0.035333183
000030 3a cc 82 bc 68 cb 4e 3d ad 87 88 3d 3a 26 9f bd
       -0.015966523 0.050486952 0.06666503 -0.07770963
000040 4e ff 97 bd 7b 2c 80 bd 10 96 35 bd 7b aa 03 be
       -0.074217424 -0.06258484 -0.044332564 -0.12858002
000050 13 14 43 bd d0 1d 26 3c e1 1b a1 bc 6d 19 21 3d
       -0.047626566 0.010138944 -0.019666614 0.03933089
000060 97 0d 6d 3d d9 9d de bd 57 8a df bd ff ed 0f 3d
       0.05787429 -0.10869951 -0.10915058 0.03513908
000070 e7 f0 87 3d fa a6 5d 3d de 34 f4 bd fe 77 24 bd
       0.06637745 0.05411432 -0.11924146 -0.040153496
000080 13 5a 11 bd b9 06 eb bd 28 ed 32 3d 74 45 c6 3d
       -0.035486292 -0.114758916 0.0436832 0.09681216
000090 40 b5 85 3d a4 04 fe bc 84 30 a1 3d 7e c4 4d bd
       0.06528711 -0.031008072 0.07870582 -0.050236218
0000a0 da 7e 0e 3e aa 4f ca 3d 02 19 85 3d fb be 11 bd
       0.13915578 0.09878476 0.064989105 -0.035582524
0000b0 4d 22 49 3d 2d 16 b2 bd c5 3d d9 3c e6 fb 26 bd
       0.049104977 -0.08695636 0.026518712 -0.040767573
0000c0 ed b7 89 bc b5 81 9f bd a5 36 3a 3d 36 04 85 bd
       -0.016811335 -0.077884115 0.04546227 -0.06494944
0000d0 ee 6f f9 3d 75 00 1d bd 67 bc 2d bd f5 aa 5b bd
       0.12179552 -0.038330514 -0.042416003 -0.053629834
0000e0 e8 70 b6 bd e3 5a fc 3d 8c 14 13 bd a7 25 da 3b
       -0.08908254 0.12322023 -0.035908267 0.0066573205
0000f0 e9 0a e7 bd 16 02 56 3d 42 44 e6 3d df b4 4c 3d
       -0.11281378 0.052248083 0.11243488 0.04997718
000100 b6 0d 27 bd f1 82 a8 bd 01 49 35 bd d9 9f ee bd
       -0.04078456 -0.082281 -0.044259075 -0.11651582
000110 ed 10 fb 3d ea 8a 8c 3b 13 42 cb bc ed 34 6e bb
       0.12259088 0.004289021 -0.02481178 -0.0036347464
000120 fc 34 9a 3a 47 2e d7 bd eb 03 0f bc 36 16 1b be
       0.0011765058 -0.105068736 -0.008728961 -0.15145192
000130 3d d8 3f bc 89 88 9b bd 43 c4 82 3d c0 0b 1d 3d
       -0.01170927 -0.075944014 0.0638509 0.038341284
000140 be 41 51 bd 2b a5 8d 3d 7d 5c d6 3d 27 57 72 3c
       -0.051088087 0.06916269 0.104668595 0.014791287
000150 5e 0d 08 3d 7c ea 15 3b ef 4e c3 3d 36 45 90 bd
       0.033215873 0.002287536 0.0953654 -0.07044451
000160 b5 ff 86 3c 39 bc 34 bd 79 40 50 bd 8e 2f 97 3d
       0.016479352 -0.044124816 -0.050842736 0.07382117
000170 f7 3d 08 bd 06 21 7d 3d 72 cf af 3d d0 b2 8d 3d
       -0.03326222 0.06179907 0.08584489 0.069188714
000180 a2 f3 9a bc 67 5a bb 3d cc 55 60 bd b5 2f aa bd
       -0.018915001 0.09148102 -0.054769322 -0.08309881
000190 f8 be 86 3d 68 43 64 bd ea 20 78 bc d8 8e dc bc
       0.06579393 -0.055728346 -0.015144566 -0.026923582
0001a0 2f 05 a5 bd 54 d1 b7 bb 06 20 e9 bd b5 bc b1 3c
       -0.08057629 -0.0056096707 -0.11383061 0.021696428
0001b0 66 f5 80 bd e2 a7 93 3d 19 53 ac 3d ba 40 cb bd
       -0.06296806 0.072097555 0.08414287 -0.09924455
0001c0 54 02 3c 3d 6f 20 18 3d ac b6 b9 3d 97 cb fc 3d
       0.045900658 0.037140306 0.09068045 0.12343519
0001d0 b1 81 2d bd fd 42 24 3d f6 fa 4f 3c 86 37 bb bd
       -0.04236001 0.040102948 0.012694111 -0.0914145
0001e0 ae 39 19 3d 77 17 86 3d 4c 4a 10 3d ad 01 ee 3c
       0.037408523 0.06547444 0.035227105 0.029053533
0001f0 77 af ec bd e3 71 8e 3d f5 d9 24 3d 45 dc 65 bd
       -0.11556905 0.06955316 0.040246923 -0.05611827
000200 f3 30 ba bd f1 f3 8c bd a9 39 4e 3d d9 1f 1f bd
       -0.090913676 -0.06882466 0.050347958 -0.03884873
000210 47 1f a5 3d 0c e4 2d 3d dc f0 cb bd 7d af d6 3d
       0.08062606 0.04245381 -0.0995805 0.104826905
000220 64 47 bc 3d b6 56 42 bc 68 77 b8 bc 42 30 8d bd
       0.09193304 -0.011861494 -0.022517875 -0.0689397
000230 7e 3a 08 bd 31 51 05 bc 67 84 77 bd 58 6d b8 bc
       -0.033258907 -0.008137033 -0.060429003 -0.022513077
000240 fa c4 b2 3b 87 50 ee bd 3d 9e 2d be fd 24 a5 3d
       0.0054556103 -0.11636453 -0.16954894 0.080636956
000250 2b e4 c0 bd e6 a2 d6 bc 61 58 e9 bd 38 3f 14 bd
       -0.094185196 -0.026200723 -0.1139381 -0.036193103
000260 b8 76 33 bc e3 28 cd bd 4a 6a 84 bd 15 f5 75 3c
       -0.010953598 -0.10017564 -0.064655855 0.015012045
000270 5a b5 39 bd 06 dc 94 bd 07 f1 29 bd 71 1d db 3d
       -0.045338966 -0.07268529 -0.041489627 0.10698975
000280 7c c3 08 bd b0 54 25 3d 28 79 04 3e c8 cb 60 bd
       -0.033389553 0.040363967 0.12936842 -0.05488184
000290 c8 db ae 3c ab 5c ed 3d a1 fb e4 3c 9c 60 7c 3d
       0.021345034 0.11589941 0.027952017 0.06161557
0002a0 a1 2f ef 3c 97 49 c7 bd 73 de 9d bc 06 9a 46 3d
       0.029197516 -0.09730833 -0.019271111 0.048486732
0002b0 d5 2d e2 bc f2 2a 43 3d 81 76 59 bd 6f 2e df bc
       -0.027609745 0.047648378 -0.05309153 -0.027243821
0002c0 86 79 dc 3d c1 68 46 3d 55 2e db bd fe 0f 14 3d
       0.10765366 0.048439745 -0.107021965 0.036148064
0002d0 1a 21 44 bc b0 fe 96 3d 91 8e 02 3d 89 0b 05 bd
       -0.011970783 0.073727965 0.031874243 -0.032481704
0002e0 48 57 a8 3c a5 0b fa bd b6 4f b8 bd 4f d0 71 bd
       0.020549431 -0.12209252 -0.08999579 -0.05903655
0002f0 15 ac 96 bd 04 ae 42 bd 7e a4 05 3e 30 5e 81 3d
       -0.07357041 -0.047529235 0.1305103 0.06316793
000300 2d fd 1a bd 4e e1 66 3c a0 94 12 bc 0c 38 95 bd
       -0.037839103 0.014091803 -0.008946568 -0.07286081
000310 6f 41 99 3b a4 d7 61 bb ac 48 02 3c 46 db 83 3d
       0.0046769897 -0.0034460807 0.007951897 0.064383075
000320 9c 1d cd 3d e0 9c ce 3d e7 74 86 bd e4 85 41 3d
       0.10015413 0.10088515 -0.06565266 0.04724683
000330 b5 4b 73 bc 29 dc 8c bd 69 c9 8f 3d 53 25 cd 3c
       -0.014849593 -0.0687793 0.07020838 0.025042212
000340 98 1c 41 bd c4 9b 62 3c 67 a6 9a bb ec a5 de bc
       -0.04714641 0.013831083 -0.0047195437 -0.027178727
000350 09 35 09 3d 50 ff cf 3d 36 a5 dc 3d fd dc ee bb
       0.033497844 0.10156119 0.10773699 -0.0072895274
000360 ca 1a 02 bd 83 bc 0c 3d b4 6a 28 3d 62 7c cb bc
       -0.03176383 0.034359466 0.041117385 -0.024839584
000370 5b 49 55 3d e9 f9 aa 3d ae 78 ad bd 1d d1 78 3d
       0.05207191 0.08348448 -0.084702834 0.0607463
000380 af 23 77 3d cb ad 5a bd 66 16 84 bd 3f 1c 82 bd
       0.060336765 -0.0533884 -0.06449585 -0.06353044
000390 bc 71 26 bd 98 43 09 bc 1a 2b 25 bd dc db c7 bc
       -0.04063581 -0.008377932 -0.040324308 -0.02439683
0003a0 25 1f 87 be 3d 51 3a 3d cc af 5b 3c c2 cd 55 3d
       -0.2639095 0.04548763 0.013408612 0.05219818
0003b0 b4 c6 ad 3d 76 fa 05 bd 6e ea 56 3d 10 38 40 bd
       0.08485165 -0.03270956 0.052469663 -0.046928465
0003c0 bd 84 65 3c 7a f3 82 be 95 04 a3 bd 58 11 43 3d
       0.014008698 -0.25576383 -0.07959858 0.047623962
0003d0 ee 01 c7 bd d6 88 14 3d 7c c9 ad bd 82 59 4a bc
       -0.09717165 0.03626331 -0.08485696 -0.012350442
0003e0 99 27 15 3e 28 b4 96 bd 9e 15 c8 3c e8 b3 0b 3e
       0.14565887 -0.07358581 0.02442437 0.13642848
0003f0 27 2a 2d bd 70 03 10 be 07 f5 66 3c 70 0e 97 bd
       -0.042276528 -0.14063811 0.014096505 -0.073758006

weight f4 [256, 512]
000000 6f ff 43 3d 23 d3 64 bd 47 30 41 3c 56 92 39 bd
       0.047851022 -0.05586542 0.011791295 -0.045305572
000010 c3 40 21 3e fe a4 6e 3d f5 6a 23 3d 19 80 37 bd
       0.15747361 0.058262818 0.039896924 -0.044799898
000020 07 19 38 3e b7 86 9c 3c 0c 19 14 3d 4c 53 4e bc
       0.17978297 0.019107206 0.0361567 -0.012593102
000030 4d 86 75 3d 51 91 46 3e 97 a9 a9 3d 64 08 44 3e
       0.059942532 0.19391371 0.082843 0.19143826
000040 9d 00 16 bd 8d 37 f9 3d 82 6d 2c 3d 71 a6 1e 3d
       -0.03662168 0.121687986 0.042096622 0.03873295
000050 f4 62 43 bd a1 09 79 be 32 22 d6 bd 81 19 29 3d
       -0.04770179 -0.2432008 -0.10455741 0.041284088
000060 0a a1 48 3d 8e 3b 9a bc 75 6c 09 bd 3e 55 2c 3d
       0.048981704 -0.018827226 -0.0335507 0.04207348
000070 b2 67 c6 bd 37 d2 3d bd 2b 9e 41 bd 9f 8a 80 3d
       -0.09687747 -0.046343055 -0.04726998 0.0627644
000080 c0 57 0a bd 44 88 1b 3c e7 33 be bd e3 a0 20 be
       -0.03377509 0.0094929375 -0.09287243 -0.15686373
000090 a8 a7 0c be dd 98 06 3e a7 f4 05 3e 39 4a 9f 3d
       -0.13735831 0.1314425 0.13081609 0.07777829
0000a0 33 08 7d be ec 99 73 3e b8 1b c7 3c be 38 1a be
       -0.24710159 0.23789185 0.02430521 -0.15060708
0000b0 ed 9a 17 bd 91 fa fc 3c 03 e0 5b 3d 4e 15 60 bc
       -0.037012983 0.030881198 0.05368043 -0.013676954
0000c0 e6 30 6a bd d5 d5 f4 3d e3 cc 05 be 19 8e 3a 3d
       -0.05717554 0.11954848 -0.1306644 0.04554567
0000d0 cb 27 a0 bc 94 02 70 bc 26 a8 b0 bc f8 14 50 bc
       -0.019550225 -0.014649052 -0.021564554 -0.012700312
0000e0 5e 11 5f be 54 9a d2 bd a6 e2 43 bd 42 3e 31 3b
       -0.21783969 -0.10283342 -0.04782357 0.0027045165
0000f0 81 38 0b bd c9 bc 2b be 78 a1 ec 3c fa b2 c6 3d
       -0.033989433 -0.16771235 0.028885588 0.09702106
000100 9a 4a 57 bc 52 88 ed 3c 2d 1f fa 3d c6 0d 89 be
       -0.013140345 0.028995667 0.122129776 -0.2676832
000110 13 12 4d 3c b4 b5 13 be f5 89 3e 3e e4 db 1b 3c
       0.012516516 -0.14424783 0.18607314 0.009512875
000120 74 99 04 bb b6 00 59 3b 5b ea 0e bd db 8e 2c 3e
       -0.0020233067 0.0033111996 -0.034891468 0.1685137
000130 e0 6e 91 be 34 4b 43 bd bb 6d 66 bd af c7 3d bc
       -0.28404903 -0.04767914 -0.05625699 -0.011583253
000140 44 6e a4 3d 53 fe 07 bd 02 8c 03 bc 63 e6 4f 3c
       0.08028844 -0.033201527 -0.008028986 0.012689206
000150 30 b1 63 3e b4 70 91 3d 73 8b ce bc bd f4 96 bb
       0.2223556 0.071015745 -0.025212979 -0.004606812
000160 84 8e 92 3e 86 cf 8c 3d 98 55 f0 bc ed aa 4e 3c
       0.28624356 0.068755195 -0.02933769 0.012613994
000170 ba 45 3d 3d 15 f3 15 3d 43 d1 67 3e ef 59 0d 3e
       0.046209075 0.036608774 0.22638421 0.13803838
000180 19 80 36 3c 2e 82 ff bc fa 05 e7 3d b1 c7 13 be
       0.011138939 -0.031190004 0.11280437 -0.14431645
000190 7e ab 89 bc 2e c4 4d bd 15 d6 a7 3d bc be 95 3d
       -0.016805407 -0.05023592 0.0819513 0.0731177
0001a0 45 72 7a 3d 65 6c 15 3e a5 8f 9b bc 90 9f 69 3e
       0.061144132 0.1459213 -0.018989393 0.22814775
0001b0 41 69 7d 3d 9e 7f 7a bd 6c fe d2 bc 8b b9 0d 3d
       0.061867956 -0.06115686 -0.025756083 0.034600776
0001c0 70 18 c2 3d 82 ff 18 3e 38 be 3b 3e d4 a3 93 3d
       0.09477317 0.14941218 0.18334281 0.07208982
0001d0 f3 48 b3 bd e5 f8 7c 3d 88 04 c3 bd c5 73 b8 3c
       -0.08754148 0.0617608 -0.09522349 0.02251614
0001e0 1a 02 92 be 41 3c 15 3d ae c4 a1 3d 3a e4 3b 3e
       -0.28517228 0.036434416 0.07898842 0.1834878
0001f0 b2 84 16 3e 34 68 26 3d 78 34 9f 3b 3f cb 76 3c
       0.14699057 0.04062672 0.0048585497 0.015063106
000200 6c 78 d0 3b 58 a8 2a bd 27 18 c0 bd 40 98 c7 bb
       0.0063620117 -0.04166445 -0.09379607 -0.0060911477
000210 ce ef d3 3d c6 92 58 3d b9 1b 12 3d 88 64 87 bd
       0.103484735 0.05287435 0.03567097 -0.06610972
000220 cc a4 0d 3d dd a3 e9 3d 6b 56 7e 3d cc 16 ef bb
       0.03458099 0.114082076 0.062094133 -0.007296419
000230 0c 79 f3 3c 58 1a c2 3d 0a 94 03 bb 19 18 88 3c
       0.029720806 0.09477681 -0.0020077252 0.016613053
000240 e3 88 9b bd 8d 73 2d 3b b7 c7 5d 3b 24 0c 78 bd
       -0.075944684 0.0026466579 0.0033840963 -0.060558453
000250 fc 74 2e bc 0f 5d 5f 3d c9 e7 10 bd ed 6c 26 bd
       -0.010648008 0.054532107 -0.035377298 -0.040631223
000260 81 8d 2a 3d 81 9a 28 bc 31 8b 84 3d 5a cf 79 bd
       0.041638855 -0.010290743 0.06471861 -0.06098876
000270 15 5f 13 3d c3 22 67 3d a2 a2 fa bc aa bd 03 3d
       0.03597935 0.056429636 -0.030595127 0.0321633
000280 fc 6f b4 bc db d8 b0 bd fd 24 13 bd 5e 25 12 3e
       -0.022026055 -0.08635112 -0.035923947 0.14272067
000290 f7 66 7e 3d 85 70 e3 bb c9 83 97 bd 1a 03 0f 3d
       0.062109914 -0.0069409036 -0.07398183 0.034915067
0002a0 49 ca b8 3c a4 ed d5 3d 08 c0 a3 3b 71 de 12 be
       0.022557395 0.10445717 0.004997257 -0.14342667
0002b0 e6 d7 30 bd 22 c8 01 3e 43 9a 5d 3c 52 75 a9 3c
       -0.043174647 0.12674001 0.013525548 0.020685825
0002c0 02 24 42 be 3c 43 bc 3b 12 26 cd 3c a4 bc e2 3c
       -0.18959048 0.0057453196 0.025042567 0.027677841
0002d0 ca 46 21 3e 65 ef ef bd 9a 14 9c bc b5 29 6a 3d
       0.1574966 -0.11715583 -0.019052792 0.05716868
0002e0 81 f5 b9 bc 96 f6 21 bd f1 f6 05 bd bb 95 20 3e
       -0.022700073 -0.039541803 -0.032706205 0.15682118
0002f0 f0 1d 7a bd 73 1b 5f 3d 10 98 71 3d 08 07 fc 3b
       -0.061063707 0.054469537 0.05898291 0.007691268
000300 ee 26 06 ba f1 b1 4c 3d 51 31 5b bc 68 1a 59 3d
       -0.00051174953 0.049974386 -0.013378457 0.0530037
000310 7f 28 98 3d 61 e3 63 3d d7 8c 12 bc 89 9d 7f 3a
       0.07429599 0.055636767 -0.008944712 0.00097509526
000320 37 22 27 3b 08 05 4b 3d 47 57 e3 3d 14 ce 36 bc
       0.0025502571 0.049565345 0.11100631 -0.011157531
000330 5f a5 11 3e ad e2 b2 3c 89 49 87 3c 3a 90 98 bd
       0.1422324 0.021836603 0.016514556 -0.07449384
000340 5b 92 60 bd ba 8b e7 3b f7 c9 4d 3d df 69 12 3e
       -0.054827075 0.0070662173 0.050241437 0.14298199
000350 07 38 40 3e c3 b5 da bd ac 09 30 bc d1 bd 44 be
       0.18771373 -0.106791995 -0.010744493 -0.19213034
000360 82 ac d8 3b 80 d3 38 3e 37 ba b0 3d 26 61 83 3d
       0.0066123614 0.18049431 0.08629268 0.06415014
000370 09 4c a0 3d cb de 0f 3d 83 53 57 3d ca f5 a0 3b
       0.078270026 0.03512458 0.052569877 0.004912113
000380 ce 83 61 3c 05 0a 33 3e 0e 8c 06 3d 27 87 63 be
       0.013764335 0.17484291 0.03284841 -0.22219525
000390 e5 78 00 3d 74 a8 02 3d 2a 8b 51 3e ee 41 9f bd
       0.031365294 0.03189893 0.20463243 -0.07776247
0003a0 cc 79 38 be 4d 91 3b 3d 4f b9 2e be 78 6d 0a 3c
       -0.18015212 0.045792866 -0.17062877 0.008448951
0003b0 2f b7 5c 3d 77 7a 0a 3d 7a 5c 81 3d 27 a4 78 3c
       0.053885635 0.033808198 0.06316467 0.015175856
0003c0 7f b6 42 bd 5e df 67 be 15 5e 1e 3c 10 f3 db 3d
       -0.047537323 -0.22643802 0.009665986 0.1073972
0003d0 68 96 f7 3c 26 50 95 3d 6e d2 0a 3c 11 48 1d 3c
       0.030223086 0.07290678 0.008473022 0.0095997015
0003e0 4e bf 24 be f6 bf 10 bc 19 63 3b 3d 20 9b ff bd
       -0.16088602 -0.00883483 0.045748804 -0.124807596
0003f0 2e 88 56 bd 4e 2d d8 bd e2 44 2f 3d ed aa b9 3b
       -0.052375965 -0.10555516 0.0427903 0.005666128

bias f4 [256]
000000 4b fa 7d 3d 01 8f 00 bc 3e d3 8c 3d b6 8d ea bb
       0.062006276 -0.007846595 0.06876229 -0.0071580065
000010 83 43 90 bd 32 8f 6b bd f6 e4 a7 3d 61 e4 67 bd
       -0.07044127 -0.05750961 0.08197968 -0.056614283
000020 22 f8 9d 3d e3 54 52 bd b2 19 e5 bc a9 9b 1c 3e
       0.07713343 -0.051350486 -0.027966354 0.15293755
000030 71 62 ef bc 66 27 79 3d de 4a 3d 3c 1d bf 01 bd
       -0.029221745 0.06082859 0.011553494 -0.0316764
000040 9b b6 46 bc 87 91 d8 ba 86 6d 3a 3e 35 a0 6c 3d
       -0.0121284975 -0.0016522863 0.18205842 0.057769973
000050 85 99 be 3c 36 63 0b 3e c3 5a 97 bd 38 31 88 bd
       0.023266563 0.13612065 -0.07390358 -0.06650013
000060 07 fb 89 bc cc e7 8a bd 1a 9d 89 bc 65 4d 04 bd
       -0.016843332 -0.06782493 -0.016798545 -0.03230037
000070 d6 96 65 3d 68 09 8c 3e 30 71 89 bd 82 31 91 bc
       0.05605205 0.27350926 -0.06711042 -0.017723802
000080 7e 36 97 3d b1 ab c0 3d 24 d9 c2 3d ba ae 33 3d
       0.073834404 0.094077475 0.095140725 0.043867804
000090 8b f0 2e 3d cf 12 36 3d 0e cd ae 3b cb 30 e1 3d
       0.04270987 0.04445153 0.005334503 0.10995635
0000a0 a4 1e 5c 3d bb 77 cb bd e8 b2 14 3c 87 41 13 3e
       0.05374016 -0.09934946 0.009075858 0.14380465
0000b0 fb 49 55 bd f7 f4 c9 3d 87 6f cb bd ad 39 79 3c
       -0.052072506 0.098611765 -0.099333815 0.015211505
0000c0 f9 7c 45 bd 78 e7 e7 3b 51 74 ba bb 92 ba f4 3c
       -0.048214886 0.007077154 -0.0056901355 0.02987412
0000d0 f2 16 1d bc 38 b0 c6 3c 71 aa 9e bc a1 1f 20 3d
       -0.00958799 0.02425395 -0.019368382 0.039092664
0000e0 a6 c5 92 3c d3 83 28 3e 4c 6d 8a bc 64 cf ef bb
       0.017916512 0.16456537 -0.01689782 -0.007318424
0000f0 82 48 9a 3d ee 82 95 bd ae ad 51 bc 5b 39 21 3d
       0.07533361 -0.073003635 -0.012797756 0.03936134
000100 17 c7 fb ba af e6 40 bd ae a0 31 bc a2 ea ba bc
       -0.0019209114 -0.047094997 -0.010841532 -0.02281696
000110 52 ae 20 bc b2 8b fa bc 25 a0 6b 3d c2 d7 e3 3c
       -0.009807186 -0.03058419 0.057525773 0.027812842
000120 f4 81 11 bd 19 46 2c 3d d2 f2 29 bd c1 5f ec 3c
       -0.035524324 0.042059038 -0.041491337 0.028854253
000130 32 47 fa bc 6e 64 07 3d d3 8f ed bc 0f 81 e1 bb
       -0.030551527 0.03305476 -0.028999245 -0.00688184
000140 4a 93 90 bd 32 3f 60 bc fe 2a a9 3c b2 9e ab 3d
       -0.07059343 -0.013686942 0.020650383 0.08379878
000150 ee 1a 59 3d c3 4e 2e 3d 21 64 e6 3c 36 fc 09 3e
       0.053004198 0.04255558 0.028123917 0.13475117
000160 c3 32 f7 3d ee 6b f2 3d ce bb fc bc 4e ed ee bc
       0.12070229 0.11836992 -0.030851271 -0.02916589
000170 79 9f 93 3d 7a b2 54 3c ca 93 5f 3c 6a 9c 83 bd
       0.07208151 0.012982005 0.0136460755 -0.06426318
000180 85 66 0e 3e e2 a2 ca bd 1c 03 49 3d 4f 6f 82 bd
       0.13906296 -0.09894349 0.04907523 -0.06368887
000190 6b 11 80 bd 3a c8 8c bd b3 d9 15 3d 60 f6 34 bd
       -0.06253322 -0.06874128 0.036584567 -0.044180274
0001a0 e7 0c 8a bd bb 03 80 3d c3 08 d4 bc 6b fa af 3b
       -0.06740742 0.062507115 -0.025883084 0.0053704283
0001b0 50 44 4e bc af 92 a5 bb 34 77 03 3d 5b 54 73 bd
       -0.012589529 -0.0050528864 0.032096103 -0.05940662
0001c0 cb cf 7f bd 67 df 8c 3d 5b f1 7f bd 36 0b 61 bb
       -0.062454026 0.06878548 -0.062486034 -0.0034338958
0001d0 cf 4f 84 bc 80 6d 34 be da 34 49 3a ce 20 58 ba
       -0.016151337 -0.17619896 0.0007675417 -0.00082446344
0001e0 ad c6 f6 bc 97 c8 40 bc 68 11 71 bd 22 3f 5f bd
       -0.030124033 -0.011766574 -0.05885449 -0.054503568
0001f0 0c 81 1c 3d f4 1a 8c 3d 70 74 70 3d d8 30 8a bd
       0.038209006 0.068410784 0.058704793 -0.067475975
000200 bc af 7d bd 62 6d 0f 3c 43 e1 94 bc 7a 1e d4 bc
       -0.06193517 0.008754106 -0.01817382 -0.025893439
000210 cb 22 0b bd 87 58 ca 3c 4c 0c bc bd f7 9e b4 3d
       -0.033968728 0.024700416 -0.09182033 0.08819383
000220 8a a6 81 3d 0f a5 46 bd 96 45 9f bd d6 ba 98 3e
       0.06330593 -0.048497256 -0.07776944 0.29830045
000230 ec b6 4e bd a9 68 be bb e0 14 4f bd d3 7b 32 bc
       -0.050467417 -0.0058108163 -0.050557017 -0.01089378
000240 bc 56 87 bd e9 11 1a bd 24 74 2c 3d f0 41 1e 3d
       -0.0660834 -0.037614737 0.042102948 0.0386371
000250 ed 37 4d 3e a1 2d 99 bd fc 93 52 bd be a7 2d bd
       0.20040865 -0.07479406 -0.05141066 -0.0423963
000260 2d 10 97 bd c2 74 a2 3e 39 a2 60 bd 10 ad 82 3c
       -0.07376132 0.31729704 -0.054842208 0.015951663
000270 ec dc cc bc 1f 46 b2 3d f1 fd 26 3d a7 2c e9 3b
       -0.025007688 0.08704781 0.04076952 0.0071159187
000280 88 49 04 bd 62 f5 88 bd 25 6a a1 3d 40 18 c3 bc
       -0.032296687 -0.06687428 0.078815736 -0.023815274
000290 dc 23 a0 3d f4 24 6c bd bd 9a 8c bc 05 4d 95 bd
       0.0781934 -0.05765243 -0.017163629 -0.07290081
0002a0 e1 7e d8 bb 28 87 36 3e 97 b3 76 3d 4a f6 df bb
       -0.006606922 0.17824996 0.060229864 -0.00683478
0002b0 4a 94 96 bd 33 81 8f 3d 4e 47 61 b9 01 67 67 3b
       -0.07352503 0.07007065 -0.00021484235 0.0035309198
0002c0 e7 33 82 bc 80 99 84 bc c6 af 08 bd 65 47 13 bc
       -0.01589389 -0.016186476 -0.033370756 -0.00898919
0002d0 a7 bf 18 bc cc 7f 20 3d 85 fe a3 bc 6d 0e 2c bc
       -0.009323037 0.039184377 -0.020018825 -0.010501486
0002e0 0d de c0 bc d6 3b 2c bd 7b fe 91 bc c0 9b a9 bc
       -0.023543382 -0.04204925 -0.017821541 -0.02070415
0002f0 d8 6e ad 3c 85 5a c7 3c b2 72 31 bd a9 c8 b4 3d
       0.021171018 0.024335155 -0.043322273 0.088273354
000300 5f 10 dd bc cc d5 25 bd 6f ac 90 bd d6 d3 8e bc
       -0.026985345 -0.040487096 -0.07064139 -0.017434996
000310 c6 55 10 3e e9 62 a2 bc 68 81 60 3d 26 22 8f bd
       0.1409522 -0.019822555 0.05481091 -0.06988935
000320 2e 10 66 bd 9c 00 a8 bd 3f c3 cb bb 3e 00 3a 3d
       -0.056167774 -0.08203241 -0.0062183435 0.045410387
000330 a6 ed 62 3c 36 1e b0 bc ae 07 0a 3b 6b 44 58 bd
       0.013850605 -0.02149878 0.0021061706 -0.052799623
000340 52 ba a9 3c 6f 78 3b bd 47 ca 43 bd bd b5 8a 3b
       0.020718727 -0.04576915 -0.04780033 0.0042330907
000350 1f 78 47 3e 20 5e 4b bd ce 7f 97 bd 80 ee 90 bd
       0.19479416 -0.04965031 -0.07397424 -0.0707674
000360 d2 81 54 3d 17 67 8e bc 7f 80 82 3d ba fe ea bc
       0.05188162 -0.017383141 0.06372165 -0.028685916
000370 1b 79 65 bd 14 8a d9 ba c9 18 b8 bc 1f 8a 12 bb
       -0.0560237 -0.0016596937 -0.022472756 -0.0022360159
000380 96 7c 3f bd 01 e6 c4 3c d8 be b4 bc db e8 0a 3e
       -0.046749674 0.024035456 -0.022063658 0.1356539
000390 44 55 67 bd 25 b0 38 bb ee 6c 45 3d 3e fa 9c bc
       -0.0564778 -0.0028181162 0.048199587 -0.019162294
0003a0 0d c7 70 3d 06 06 01 3e 18 6d 76 3c 4f 2a 5b bd
       0.05878358 0.12599954 0.015040658 -0.053507145
0003b0 26 91 39 bc 32 59 c7 3c 90 e3 1a 3c 38 64 30 bd
       -0.01132611 0.024334524 0.009453669 -0.043064326
0003c0 cc 91 ce 3d 5b 15 8b bd cb 46 76 3d a6 9e 5f 3d
       0.10086402 -0.067911826 0.060126107 0.05459466
0003d0 86 53 46 bd fc d5 0c 3c 53 b7 61 3d 54 b8 c6 3e
       -0.048419498 0.00859594 0.055106472 0.38812506
0003e0 9d 33 c9 bc a3 64 05 bc 11 7a 66 bd 6c 71 95 bd
       -0.024560744 -0.008141669 -0.056268755 -0.07297024
0003f0 cd fb 0f bd 14 48 54 3d 1b 31 96 3c 79 12 ab bd
       -0.035152245 0.05182655 0.018333962 -0.08353133

weight f4 [8, 256]
000000 8d 4e 5f 3d 69 d1 0c 3d 29 1f 86 3c e0 7d 9a bc
       0.05451827 0.034379397 0.01637228 -0.01885885
000010 2a 02 55 3d 9c 3f e0 bc 7d 9f 5f 3d ba 22 e9 bc
       0.052004017 -0.027374081 0.05459546 -0.028458942
000020 c1 23 73 bd e9 91 ff bb 7b bf 46 3d 4c aa 70 3d
       -0.05936027 -0.0077993763 0.048522454 0.058756158
000030 43 8b d0 bc 9d 18 df 3c 84 59 03 3c 98 b8 96 bc
       -0.02545703 0.027233416 0.008016948 -0.018398568
000040 3c 81 47 3c f1 96 be 3c ca 86 43 be f3 47 9e 3d
       0.012176808 0.023265334 -0.19094387 0.07728567
000050 76 4c 92 3c b2 9a 1b 3d b7 71 50 3c c8 bf 04 bd
       0.017858725 0.037989326 0.012722424 -0.03240946
000060 9c 20 f4 3c ff c9 aa 3b f4 c0 01 bd 1e ae 88 bc
       0.029800706 0.005212068 -0.031678155 -0.016684588
000070 fa 31 94 ba 7d 6d 0a be f8 85 36 bc ec 08 83 3d
       -0.0011306398 -0.13518329 -0.011140339 0.06398186
000080 73 c0 98 3d 35 be c3 3b 57 cd ca 3c f3 87 9f 3d
       0.07458582 0.005973602 0.024756117 0.07789602
000090 0c 12 96 3c 7a 4c 88 3d 49 94 9a 3d 67 66 8d 3d
       0.018319152 0.06655212 0.075478144 0.06904297
0000a0 03 b4 b6 3c 20 35 1f bd b3 b2 83 3d 83 60 87 bd
       0.022302633 -0.038869023 0.064305685 -0.06610205
0000b0 8b 36 cc bc a6 55 9b bd b1 2f 75 ba fa 4b 84 bc
       -0.024928352 -0.075846955 -0.0009353115 -0.01614951
0000c0 30 88 a4 3c 12 1c 02 bd b7 db f9 3c fb 14 30 3d
       0.02008447 -0.03176505 0.030500276 0.04298876
0000d0 73 1b 4d 3d 32 d8 01 3d 4d a8 4e be c7 08 9b 3b
       0.050075006 0.03170032 -0.20181389 0.004731271
0000e0 83 f9 92 3d 80 4d 5b 3c b1 2d e9 bc 5b 6b cd bc
       0.07176497 0.013385177 -0.02846417 -0.025075605
0000f0 88 a7 26 3d 97 56 51 bd db b9 a7 3c e7 9c a9 3d
       0.040687114 -0.05110797 0.020474365 0.0828188
000100 23 01 11 3d d0 46 7c 3d e8 35 03 bc fa 45 d4 bc
       0.035401475 0.06159097 -0.008008458 -0.025912274
000110 e7 0d b2 bc 8f 63 12 3d 48 cf d8 3d 79 2b 8d 3d
       -0.021735145 0.035739478 0.10586411 0.068930574
000120 05 9b a3 3d 75 1d 8e 3d 44 69 66 3d 24 7d e4 3d
       0.07988552 0.06939212 0.056252733 0.11156681
000130 ec 2e 04 3d d0 d2 6a bc 83 54 b2 3b c4 ef 6b bc
       0.03227131 -0.014332488 0.0054422035 -0.014400426
000140 77 c1 7f 3b ce f0 94 3c ed 46 39 3c 47 4d 2b 3d
       0.0039025226 0.01818123 0.011308414 0.041821744
000150 d3 57 e9 3c 5a 01 8d 3d bf 56 a3 3c 10 bc 8a 3d
       0.02848426 0.068850234 0.019938825 0.06774151
000160 4d 0c be bc 62 57 42 3d 4c 5a 26 3d d2 f6 53 3d
       -0.023199225 0.047446616 0.040613458 0.051749058
000170 06 82 5f bb 48 25 b6 bc 22 af 32 3d dc 80 4b 3c
       -0.00341046 -0.022234574 0.04362405 0.012420859
000180 01 8a d9 bc dd d5 93 3d 6d df 50 3c 13 6c fd bb
       -0.026555063 0.072185256 0.012748581 -0.0077338307
000190 d5 b0 40 bc 9e 87 71 bc 64 46 97 3d 5a 9b ee bb
       -0.01176091 -0.014741806 0.07386473 -0.007281703
0001a0 cb 5a 49 bc d2 cc ca bd 3f 6e 3d 3b d0 b1 5d 3c
       -0.012289713 -0.099023476 0.0028904823 0.013531163
0001b0 61 62 8d bc c4 a2 1f 3d 7a b3 0b 3d 74 8c 41 3c
       -0.017258825 0.038973585 0.03410671 0.011813272
0001c0 62 69 b7 b9 a3 41 b8 3d aa 17 9f bc b5 13 a0 3c
       -0.00034982996 0.08996894 -0.019420464 0.019540647
0001d0 e1 fa a2 3a 07 e9 86 bd 87 93 d9 bc 7b e4 1e 3d
       0.0012434387 -0.06587415 -0.026559604 0.038792115
0001e0 6a 15 68 3d 84 05 9f 3c e4 36 df 3c 1e dd 00 bb
       0.056661047 0.01941181 0.027247854 -0.0019663046
0001f0 5b 14 25 be 6a a6 96 3c 4f 8b 18 be ac 7f 43 bb
       -0.16121046 0.0183899 -0.14896892 -0.0029830737
000200 86 f9 3c bc fc 43 20 bc 6b 01 6b 3d d3 9a 22 bc
       -0.0115341 -0.009781834 0.0573744 -0.009924608
000210 d7 78 5d 3b 25 d0 8a 3d 68 72 ad 3c b9 86 13 3d
       0.003379395 0.06777982 0.021172717 0.036017153
000220 0c 96 01 bc 24 67 e7 3c bb 42 59 3d 6b 87 ed 3d
       -0.007909309 0.028247423 0.053042155 0.115980946
000230 71 c4 0d 3d 8e c9 8e 3c ff 13 4b 3d a1 21 c7 3c
       0.03461117 0.017430093 0.049579617 0.024308028
000240 49 5b aa 3a 0d 8e d0 bc 08 06 03 bc c4 8a 89 3d
       0.0012997176 -0.02545836 -0.007997043 0.067159206
000250 11 15 2d bd d5 15 ff 3d a2 e4 0d 3d 7b b4 1e bc
       -0.04225642 0.12455336 0.03464187 -0.009686585
000260 97 9e 1e bc 26 e8 e6 bd 10 55 fb 3c d9 34 b3 bc
       -0.009681365 -0.112747476 0.03068021 -0.021875786
000270 b5 59 00 bd 97 26 64 3d 3b ab 2b bc 32 03 8d bd
       -0.03133555 0.055700865 -0.010477836 -0.06885375
000280 35 f8 a3 bb e3 e5 6e 3c 62 b3 bd 3b 47 54 5b bd
       -0.005003954 0.014581176 0.0057892064 -0.05354717
000290 8f 66 38 3d e5 9a 3f 3c 0a 55 6a 3d ce 00 f7 3b
       0.045019682 0.011694645 0.057210006 0.0075379377
0002a0 eb de 0f 3d 26 57 31 3d 0f 22 62 3d 79 86 81 3d
       0.0351247 0.043296 0.055208262 0.06324477
0002b0 a2 eb c4 bc a0 54 30 3d 25 e0 07 3d 7e c1 da bc
       -0.02403814 0.043049455 0.033172745 -0.026703592
0002c0 b7 88 b9 bc 89 35 aa 3d b3 62 31 3d 2a c8 9e bc
       -0.022648199 0.08310992 0.043307018 -0.019382555
0002d0 7b 55 11 bc f9 87 ce 3d 3b 07 22 3d 9a 1d 7a bc
       -0.008870478 0.100845285 0.039557677 -0.015265847
0002e0 e4 00 03 bd bc d5 d5 bb c8 57 c6 3b 53 d0 c5 ba
       -0.03198327 -0.0065257233 0.006052945 -0.0015091993
0002f0 78 4c b0 3d ca 1b 87 3d 0c 0f 9b 3d ed fe a4 3d
       0.08608335 0.06597097 0.07571229 0.08056436
000300 e9 a4 9b 3d 1c b2 2b 3d c8 d8 4d 3c ae be 43 3d
       0.075998135 0.041917905 0.012563892 0.04778927
000310 cb b2 c2 bc 20 9b fb 3b 98 04 03 3c 1e 08 9a 3d
       -0.023766896 0.0076784045 0.007996701 0.075210795
000320 5c 61 9d bc d7 1c 67 3b 9c 01 0d bd 34 c4 5c 3d
       -0.019211464 0.0035264993 -0.034425363 0.05389805
000330 aa 31 07 bc 26 e3 ad 3d 0d da 97 bc e0 d7 1f bc
       -0.008251587 0.08490591 -0.018536592 -0.009756058
000340 bd 32 2c 3d 9e 32 d1 bc e1 81 1b 3c 2c b8 97 bc
       0.042040575 -0.025536831 0.009491415 -0.018520437
000350 55 2c 65 bc 1e 88 65 bc 16 c6 04 bc 6a a0 63 3d
       -0.01398762 -0.014009504 -0.008103868 0.055572905
000360 bd ad 3d 3d 40 04 3c bc f4 e8 99 3d 83 60 0c bc
       0.046308268 -0.011475623 0.075151354 -0.008567932
000370 4c 16 0b 3d a0 e1 8f 3d 7e 1c 0d 3d 69 31 ef bc
       0.03395681 0.070254564 0.034451 -0.029198365
000380 d1 79 10 bc 0c b8 5a 3d 5b 77 8b 3d 53 d7 a5 bb
       -0.008818106 0.053398177 0.068098746 -0.005061069
000390 e1 2a ba ba 7a 7c aa 3d 7c e3 85 3d e9 98 98 bc
       -0.0014203453 0.08324523 0.0653753 -0.0186276
0003a0 08 89 0a be b6 eb 96 3c 42 38 4c 3d 21 98 53 bc
       -0.13528836 0.018422943 0.04985834 -0.012914688
0003b0 e9 49 a2 bb 3e 48 fe 3c 68 e0 62 bc 17 17 f8 bc
       -0.0049526584 0.031040307 -0.013847448 -0.030284448
0003c0 6e 1b cf 3c 1f 8a 2d bc 3d 1b 57 3c 0a 44 6e bc
       0.025281634 -0.010592013 0.013129053 -0.014542589
0003d0 b4 a7 0c 3d 38 97 84 3c 3d df 8e 3d ce b7 a2 3d
       0.03433962 0.016185388 0.06976173 0.07945214
0003e0 59 f8 57 bc f2 9b 9f bc c7 fe c7 3c 24 a3 28 3c
       -0.013181769 -0.01948354 0.02441348 0.010292802
0003f0 50 5b bb bc e0 62 09 3d 1b da 62 3d 84 c6 8e 3c
       -0.02287069 0.03354156 0.055383783 0.017428644

bias f4 [8]
000000 5d 63 13 bd 79 00 33 bc a5 f5 de bd bf 55 56 bd
       -0.035983432 -0.010925406 -0.10886697 -0.052327868
000010 0e e6 bb 3c 42 fe a3 3d 4b 5e 80 3d 3d ab 8d 3d
       0.022936847 0.0800748 0.06267985 0.06917427
