weights/weights_trained_on_pseudo.pth (torch, 811900 bytes, 8 tensors)

weight f4 [128, 15]
000000 32 f9 9f ba fa fa e0 3d a2 ff 40 be c7 bd 1e be
       -0.0012205003 0.1098537 -0.18847516 -0.15502082
000010 a9 b0 51 3e bf 38 8e bc b6 50 40 be 30 96 89 be
       0.20477547 -0.017361043 -0.18780789 -0.26872396
000020 7b 17 37 3e c1 b9 99 3b 1b bd 5c bc ac 10 53 3d
       0.17880051 0.004691333 -0.013472821 0.05152957
000030 47 4a a3 be 89 30 d7 3d 50 c3 4a 3e 9a 8d 44 3d
       -0.31892607 0.10507304 0.19801068 0.047986604
000040 87 57 d8 3d 3b c7 8c 3e d5 ec 5d 3e 9e 55 1e be
       0.105635695 0.2749575 0.21672376 -0.15462348
000050 98 6c 25 bf e4 01 c3 be 4c 50 f0 3e e9 be b8 bd
       -0.64618826 -0.3808738 0.46936262 -0.09020788
000060 e1 57 24 3e d5 b8 a7 3d e8 50 f2 3d 72 69 64 bd
       0.16049148 0.08189551 0.11831838 -0.055764623
000070 a5 d2 92 3d 7c 2b db 3c 24 c6 1a 3e 8f 32 67 be
       0.071690835 0.026754133 0.15114647 -0.2257788
000080 52 7c cc 3b d6 99 94 3c cb 10 89 be 6d 9e 81 be
       0.006240406 0.018139761 -0.26770625 -0.25316182
000090 ee af 73 bd b5 8c 0f be 91 6b 4f 3e 39 f8 74 3d
       -0.05949395 -0.14018519 0.20255877 0.059807036
0000a0 fb 55 fa 3d e7 28 99 bd b5 73 48 3e 9b 23 71 3d
       0.12223431 -0.07478505 0.19575389 0.058871847
0000b0 2c 4c 4b be c0 46 a7 be d5 6e d4 be c6 01 7b 3e
       -0.19853276 -0.32671165 -0.41490808 0.24512395
0000c0 b9 c7 e4 3e 57 22 86 be 26 14 81 3e 95 f3 11 3e
       0.44683626 -0.26198074 0.25210685 0.14253075
0000d0 5f a7 a7 be c6 aa fe 3d 04 7a f0 3d a3 d1 61 be
       -0.32744882 0.12434916 0.11742023 -0.22052626
0000e0 8d 4c ad be b7 13 48 3e 7b 15 28 be 4e ff 8d 3e
       -0.33847466 0.1953877 -0.16414444 0.27733845
0000f0 6f 9b 32 be 09 4a 1d bb 8f b4 8e be 74 33 a9 3e
       -0.17442106 -0.0024000427 -0.2787213 0.33047068
000100 2c be 0a be b9 a2 19 bc fc 32 6b 3d 30 21 54 3e
       -0.13549107 -0.009377175 0.05742167 0.20715785
000110 9e e7 dc be c7 f1 3f 3e 32 81 59 be be ab 4c be
       -0.4314546 0.18744574 -0.2124069 -0.1998739
000120 7f 7a 21 be 99 63 1e 3d c7 8b 23 3d 3c 0f 4a be
       -0.15769385 0.038669202 0.039928224 -0.19732374
000130 ce 9a 3c 3d 07 4b 15 be aa a0 29 bc 03 3f 41 3e
       0.04604607 -0.14579402 -0.010353247 0.18871693
000140 b6 a6 85 bb ae 08 12 be 22 e5 4f 3e 7c 7f b8 bd
       -0.0040787114 -0.14261124 0.20302251 -0.09008691
000150 2b 69 35 be 86 93 02 be c1 8a 04 be b0 78 24 3d
       -0.177159 -0.12751588 -0.12943555 0.04015416
000160 ce c2 7a be 88 87 b3 bd 6d 68 36 3e f9 9f 26 3e
       -0.24488375 -0.08766085 0.17813273 0.16271962
000170 44 47 67 3d f6 f5 e1 bc c8 d3 5b be 12 c0 ab bd
       0.05646445 -0.027583104 -0.21467507 -0.08386244
000180 5f da bf bd 1e bd 33 be 2d 04 cf bd 7d c9 4c 3e
       -0.09367823 -0.17552611 -0.10108218 0.19998737
000190 2d e3 2a 3e 8d 56 67 bd d8 60 06 be 51 4d 33 3e
       0.16688223 -0.056479026 -0.1312288 0.17509963
0001a0 2b 12 4f be 60 1a bc bc b3 fe e0 3d 99 47 eb 3d
       -0.20221774 -0.022961795 0.1098608 0.114882655
0001b0 64 cc 46 be fd 0f 24 bd 67 86 46 be a0 5a e9 3d
       -0.19413906 -0.04005431 -0.19387208 0.113942385
0001c0 21 ca e5 bd 13 ab 2c 3e 18 6d 0f 3e 2e ad 7c bd
       -0.11220194 0.16862135 0.1400646 -0.061688595
0001d0 1f 76 7c 3d 84 bb da bb fd c2 a2 bd 89 0d 20 be
       0.061636087 -0.0066751856 -0.07947347 -0.15630163
0001e0 e9 b3 6b 3e cd ce 45 3e c7 70 13 3e e9 13 1a be
       0.23017849 0.1931717 0.1439849 -0.15046658
0001f0 03 f2 dd 3d 29 68 3f be ba 2d 67 3b 40 42 8d be
       0.10837176 -0.18692078 0.0035275058 -0.27589607
000200 c5 93 5a be 38 aa 1d 3e ad 33 87 be 88 40 92 3d
       -0.21345432 0.15396965 -0.26406613 0.071412146
000210 ce 57 87 3d e4 74 e5 3c 88 51 af bc c8 02 d2 3d
       0.06608544 0.02800984 -0.021401182 0.10254437
000220 ca a4 17 3e 64 57 52 3e ce 45 e4 3e e7 f0 f9 bd
       0.14808956 0.2054115 0.44584507 -0.122041516
000230 c4 30 f9 be 69 4f 0d 3e fb ae f7 3e fd f5 72 be
       -0.48670018 0.13799824 0.48375687 -0.2372665
000240 d4 d4 8b 3d 89 d5 9f bd 41 a5 9a bc 1b aa 63 bd
       0.06827703 -0.078044005 -0.018877627 -0.055582147
000250 45 77 39 bc 2e 7a fb 3c 1e a2 69 be 69 2c 01 be
       -0.01131994 0.030697908 -0.22815749 -0.12614597
000260 0f cb e9 3d 64 c1 cc 3c e9 ee 73 3d 63 07 72 be
       0.114156835 0.02499456 0.059554014 -0.2363563
000270 7b 62 8d bd 5b 42 51 bd fc 6f 20 bc 82 a1 7d bd
       -0.06903549 -0.051088672 -0.009792324 -0.061921604
000280 2f ef 02 bd 1e 50 72 3d 70 29 fa 3c 22 8d 00 be
       -0.031966385 0.059158437 0.030537337 -0.12553838
000290 86 37 94 bd 2c ba 03 3e 3d 4a 5f be d5 72 d1 3d
       -0.07237153 0.12863988 -0.21805663 0.102269806
0002a0 ae 41 ea be bc bc 47 be 42 b1 b3 3e cd 57 5f 3a
       -0.45753235 -0.1950559 0.35096174 0.0008519858
0002b0 af c5 13 be 01 e3 20 be ac 1a 45 3c 77 2d 04 be
       -0.14430879 -0.15711595 0.012030285 -0.12907968
0002c0 a5 9e a1 be b3 01 c6 3a 44 6c 37 be eb 0e 0f bd
       -0.3156635 0.0015106708 -0.17912394 -0.034926336
0002d0 a9 1c 8f 3e 13 74 02 be 66 f6 ec 3e aa 7d 57 bf
       0.27951553 -0.12739591 0.46281737 -0.84176123
0002e0 fe 50 43 3e 6f d3 65 bd 4e 24 c9 3d b4 3d 92 3d
       0.19073865 -0.056109842 0.09821378 0.07140675
0002f0 78 9a 61 3d b8 29 e5 bb 03 47 18 bd 96 24 80 bd
       0.055078954 -0.0069934987 -0.037177097 -0.06256978
000300 f4 76 1e be 99 91 a3 3d 8d 73 14 3e 8f 5b 3b 3e
       -0.15475065 0.07986755 0.14497204 0.18296646
000310 b0 9b 11 bd d9 5c 7e 3e 10 d4 5f be 14 8c 5e be
       -0.035548866 0.24840106 -0.21858239 -0.21733123
000320 9b f0 30 bd 92 b7 44 be 04 00 83 bd 61 ce 9d bd
       -0.04319821 -0.19210652 -0.06396487 -0.07705379
000330 bc 81 00 bd 6d 5e ba bd eb 92 75 be 5f 04 30 3e
       -0.031373724 -0.091000415 -0.23981826 0.17189167
000340 2d 38 eb bc f8 9c ee bd cf 2f 1f 3d 4d c4 dd 3d
       -0.02871331 -0.11651033 0.038863953 0.10828457
000350 21 05 dd 3e 8e f1 e9 bd a4 a2 c1 3d 2f 34 89 be
       0.43167976 -0.11423026 0.09454849 -0.26797625
000360 45 9e 31 be 0e 73 a2 3d 24 1c 8a 3e 07 b3 26 be
       -0.17345531 0.07932101 0.26974595 -0.16279231
000370 02 9b d4 bd 22 9d f6 3d 56 53 80 3e 97 bc 80 bd
       -0.10381128 0.120416895 0.2506358 -0.06285971
000380 fe ff 1a 3e 8d 8f d0 3d d9 e6 a0 bd e3 66 ec 3d
       0.15136716 0.1018363 -0.07856531 0.115430616
000390 93 5d 94 3d 77 56 00 3e 5c 1a 9c be 9f ef 87 be
       0.0724441 0.12532984 -0.3048886 -0.26550004
0003a0 46 bf 88 3d 49 46 0a bd 44 f0 16 3d 15 c5 ef bd
       0.066771075 -0.033758435 0.03685023 -0.11707512
0003b0 2c 4f 6b bb fd 47 73 bd e3 1e 07 bd d3 c8 0b 3d
       -0.0035905344 -0.059394825 -0.03298844 0.034127068
0003c0 eb 45 45 3e c6 db 07 be d8 90 cb 3e 59 7b a4 be
       0.19264953 -0.1326743 0.39758945 -0.32125357
0003d0 69 35 d7 3c 78 8f b0 bc eb 1e 9d be b6 f4 f8 bd
       0.026270585 -0.021552786 -0.3068765 -0.1215605
0003e0 86 1b 03 3f 28 71 bf bd 1e b0 da bd 69 a5 da 3d
       0.5121387 -0.09347755 -0.10678123 0.10676081
0003f0 42 bc c5 3a 20 08 1e bc af b7 d4 bc 72 90 2a be
       0.0015086012 -0.009645492 -0.025966493 -0.16656664

bias f4 [128]
000000 13 6a 11 3d d3 20 56 be 45 c2 a2 bd e6 36 14 3e
       0.03550155 -0.20910959 -0.0794721 0.14474067
000010 5f 5f b6 3e 95 9f 1d be d4 ad 42 bd b3 96 c6 3c
       0.35619637 -0.15392907 -0.047529057 0.02424178
000020 cf 5b d0 bd 9e 65 e0 bd ee ef f3 bd c6 b5 68 3e
       -0.10173761 -0.10956882 -0.11910997 0.22725591
000030 27 b5 a9 be 62 2b 74 be 5f 11 a2 be 46 9c 39 3e
       -0.3314602 -0.23844674 -0.31653878 0.1812602
000040 57 7e 87 bd d8 7c 80 3d f3 b1 fe bd a0 9c da 38
       -0.06615894 0.06273812 -0.12436285 0.00010424224
000050 bf 60 92 3e ba e2 48 be 88 f8 29 3e ef 37 bd bd
       0.28589436 -0.1961774 0.16598713 -0.09239184
000060 0b fd 8c 3e 0d 36 c1 bc f2 91 33 be 76 e5 37 be
       0.27536806 -0.023585344 -0.17536142 -0.17958626
000070 e4 4d 06 be 31 59 5f be 3d 23 7a be 15 38 5c be
       -0.1311565 -0.21811368 -0.24427505 -0.21505769
000080 a3 1d 5e 3d a1 d3 4d be bf 7c 62 be ce 8a 03 be
       0.054227483 -0.20100261 -0.221179 -0.12845919
000090 41 ba 31 be df a5 e5 3d f4 24 95 3d 15 a8 1e be
       -0.17356206 0.11213278 0.07282439 -0.15493806
0000a0 28 e4 92 bb ed 4c 4e bd 90 e2 94 be 41 14 2e be
       -0.0044827648 -0.05036633 -0.29079103 -0.16999914
0000b0 7b 97 17 bc 0c 73 06 be 1c 7c 32 3e de 76 31 3c
       -0.009252424 -0.13129824 0.17430156 0.010831563
0000c0 60 60 33 be 2e 68 a6 3d 8b a8 92 3b 28 0d de 3c
       -0.17517233 0.081253394 0.0044756583 0.027105883
0000d0 2f 8e 6e 3e 33 35 86 bc f7 36 8c be 72 25 af 3d
       0.23296426 -0.01638279 -0.27385685 0.08552064
0000e0 d0 f6 6e be 16 5c 8a bd 62 83 99 3d 29 f1 26 be
       -0.23336339 -0.06755845 0.074957624 -0.16302933
0000f0 1d bb 40 be 32 04 a4 bd 87 3a 12 3d 30 df f5 3c
       -0.18821378 -0.08008613 0.035700347 0.03001365
000100 af 8b 19 be 88 a5 95 bd 0f 5f 0c 3e d1 8b 16 be
       -0.14994691 -0.07306963 0.13708137 -0.14701773
000110 a6 6a 7d be 8d c2 28 be 16 e1 1f be b9 e5 91 bd
       -0.24747714 -0.16480465 -0.15613207 -0.07123894
000120 c2 b3 13 be fb 04 fa bd 6a 08 cc 3d 51 7b 5d 3e
       -0.14424041 -0.12207981 0.09962542 0.21629073
000130 23 88 26 be 5f 77 8d be 66 54 0c 3e 0c 5c 83 be
       -0.1626287 -0.27630135 0.1370407 -0.25656164
000140 a1 84 b0 3d 18 f8 49 be c4 19 93 bd ef 58 0f 3d
       0.08619047 -0.19723547 -0.07182649 0.034996923
000150 79 e0 43 bd 20 c9 e3 3d 5b 48 bb bd ef 48 a3 bd
       -0.047821496 0.11122346 -0.0914466 -0.07972895
000160 94 25 8d 3e 69 8a f8 bd 5c 1e 8a 3d 17 65 cb bd
       0.27567732 -0.12135775 0.06744072 -0.09931391
000170 15 9e 04 be 69 83 c3 be a4 f7 09 bd d1 28 c6 3d
       -0.12950929 -0.38186195 -0.033683434 0.09675754
000180 32 24 06 3e b1 22 6b 3d 8e c9 3c bd 6b 79 6f be
       0.13099745 0.05740613 -0.046090655 -0.23386161
000190 9e cb 28 3d 59 b7 96 3d f7 ed 83 3e 72 c1 81 3e
       0.04120981 0.073591895 0.2576749 0.253429
0001a0 9b 84 21 bd e8 2b 52 3e 5b 59 e4 bd 92 a9 9b 3c
       -0.039433103 0.20524561 -0.11149856 0.019001756
0001b0 0a ad 8c bd d6 32 3b 3e 3f da 6f 3e 42 15 46 3e
       -0.06868942 0.18281111 0.23423098 0.19344047
0001c0 54 f4 c5 3d 96 23 ce bd e7 fe 60 be 11 ac 76 3e
       0.096657425 -0.10065381 -0.21972238 0.24089076
0001d0 a7 42 f8 bc e6 fa e0 bd 06 77 2e 3e b9 a9 81 3e
       -0.03030522 -0.10985355 0.17037591 0.253248
0001e0 1e a5 72 be c7 e5 81 bd ef 02 59 3d cc 3b 2b be
       -0.236958 -0.06342655 0.052981313 -0.1672203
0001f0 ec 6d 6e bd 8e b6 1a 3e 47 b3 04 3e b6 84 52 be
       -0.0582103 0.15108702 0.12959014 -0.20558438

weight f4 [512, 128]
000000 61 7e 1e 3d 86 25 26 bd 5b 29 69 3c 91 fb 77 bd
       0.038694743 -0.04056313 0.014231051 -0.060542647
000010 5f f7 4a bd b2 24 b4 bd 03 cb 51 bd 37 0d 27 bd
       -0.049552318 -0.087960616 -0.051218998 -0.040784087
000020 84 73 a8 bd c9 08 8b bd 1f 5e bf bd 54 17 20 bc
       -0.08225158 -0.06788785 -0.09344124 -0.009771187
000030 0c 9a 1e 3d 80 b0 e1 bc 34 43 f3 bc ff bc 73 bd
       0.03872113 -0.027549982 -0.02969513 -0.059506413
000040 78 8b a4 bd e3 7b d1 3b aa 4c 40 3d 10 f9 34 3c
       -0.08034414 0.0063929423 0.046948113 0.011045709
000050 d8 ab ea bd 0b 1d 15 3d bd 28 ae bd cb fe f8 3a
       -0.11458558 0.03640465 -0.08503864 0.0018996833
000060 02 95 15 3d 05 ae b3 bd 35 75 95 bd 8a 19 0e bd
       0.036519058 -0.08773426 -0.07297746 -0.034692325
000070 46 22 70 bd c5 54 b1 bd 12 43 af bc f5 50 8b 3d
       -0.058626436 -0.08658747 -0.021394286 0.06802551
000080 87 48 fa bd f5 00 4f bd ea 89 a6 bd e7 ad 21 bd
       -0.12220865 -0.050538022 -0.08131774 -0.039472487
000090 cd 90 ff 3c 87 c4 bc 3c 82 65 15 3d 87 07 3e bc
       0.031196976 0.02304293 0.03647376 -0.011598474
0000a0 89 3d 4f bb e8 06 d7 bd ea 19 c8 3d 47 57 9f bd
       -0.0031622371 -0.10499364 0.09770568 -0.07780319
0000b0 ec 09 2d bd 59 e9 71 3d 81 14 ee bd a9 14 a1 bd
       -0.04224579 0.05906043 -0.116250046 -0.07865269
0000c0 d4 ba 4f 3d 12 05 01 3d 6a 57 3b bd 34 75 00 bd
       0.050715283 0.031498976 -0.04573766 -0.031361774
0000d0 77 c7 2e bd 3f 3e f5 bd c9 9c 2d bd 63 98 b2 bc
       -0.042670693 -0.11974763 -0.04238585 -0.02180118
0000e0 65 89 55 bc 15 e0 9d bd c5 01 a5 bd fd 0f b5 bd
       -0.013033246 -0.07708756 -0.08056978 -0.0884094
0000f0 e8 6e e5 bd 8f 6a 3d bd 72 fc a4 bd ed f7 8d bd
       -0.11202794 -0.0462442 -0.080559626 -0.06932054
000100 d2 c1 66 3a 34 4d 65 bd 04 98 1d 3d aa c7 4d bd
       0.0008802685 -0.05598183 0.03847505 -0.050239243
000110 00 b4 a6 bd f1 00 27 bd dc 1d e4 bd 9d f1 10 be
       -0.08139801 -0.040772382 -0.11138508 -0.14154668
000120 75 7e 3e bd 02 19 cb 3d f4 b8 5a 3d 06 55 e0 bd
       -0.046507318 0.09916879 0.05339904 -0.10953717
000130 21 7a 9d bc ff 0c 01 be 3c 9a 84 bd e0 38 7f bd
       -0.019223275 -0.12602614 -0.0647473 -0.0623101
000140 b0 79 99 bd d7 22 ae bd d1 d4 3d bd 06 3a 99 bd
       -0.07493913 -0.08502739 -0.046345536 -0.0748177
000150 22 fe 54 bd dd 04 28 bc 7f a3 a1 bd c4 a1 91 3c
       -0.052000172 -0.010255066 -0.078925125 0.017777331
000160 87 10 b2 3c 5e b7 92 3c 00 0a 1b bc 5d 27 d5 3c
       0.021736396 0.017909702 -0.009462833 0.026019746
000170 86 42 db bd 7a 6a 6f bd 87 2e 20 bc b3 32 9c bd
       -0.10706048 -0.058451153 -0.009776718 -0.076268576
000180 c3 68 e5 bd 75 08 59 bb 18 39 78 bd 36 ee 67 bd
       -0.11201622 -0.0033116613 -0.060601324 -0.05662366
000190 74 cd a5 bd 63 4c c7 3c e6 1c e3 bd d4 7a 41 bd
       -0.08095828 0.024328416 -0.11089496 -0.04723628
0001a0 a2 51 0f bd 88 87 5f 3d da d4 e5 bd 86 48 41 3d
       -0.03498996 0.054572612 -0.11222239 0.047188304
0001b0 9d aa f4 bc 7e 20 90 bd 44 9d 95 bd 82 17 06 be
       -0.029866511 -0.070374474 -0.07305387 -0.13094905
0001c0 f7 ea 13 3c 92 16 16 3d 0a ac 58 3d a7 9f d4 bd
       0.009028188 0.03664262 0.052898444 -0.10382014
0001d0 72 ca b9 bc cd ca 24 3d 07 64 33 bd b4 55 13 bd
       -0.022679541 0.04023247 -0.043796565 -0.035970405
0001e0 e9 44 0f be 74 ae 2a 3d 61 ec f8 bd e9 5d e8 bb
       -0.13991131 0.041670278 -0.12154461 -0.007091273
0001f0 d7 a6 77 3c 4a 38 04 be 30 21 d8 bd a6 39 a7 3d
       0.015115461 -0.12912098 -0.10553205 0.081652924
000200 7d 94 ea bd b6 99 23 3e d4 af 93 3d 02 1d fb bc
       -0.11454103 0.15976605 0.07211271 -0.03065348
000210 88 52 67 bb dc 0c d7 bc db 2f f8 bc 91 d7 d8 bd
       -0.0035296995 -0.026251249 -0.030296257 -0.10587991
000220 5c b9 35 be 09 20 ef 3d 84 3c ae 3d ff 6d 2f bd
       -0.1774649 0.11676032 0.08507636 -0.04282951
000230 d7 b7 5a 3d 40 25 47 3d e9 de 5f 3d b0 fd 5b be
       0.05339798 0.04861951 0.054655943 -0.21483493
000240 7e 5e 3f be 81 6c 09 be 78 5f cb bd ac 72 77 bd
       -0.1868839 -0.13420297 -0.099303186 -0.060412094
000250 59 e3 97 3d 81 24 fa bd 02 7b 86 bc 1c b1 4f bd
       0.0741641 -0.12213994 -0.016416077 -0.050706014
000260 31 16 e6 bd d9 a2 7e bc e8 1c 0f be 8e 86 c2 3d
       -0.112347014 -0.015541756 -0.1397587 0.094983205
000270 6e c1 09 bc 7d b1 9d bd 40 1d 2f be 64 47 89 bd
       -0.008407934 -0.07699869 -0.17101002 -0.0670307
000280 34 5c 20 be b0 db db bc 8e 1b e3 bc a4 ad 67 bd
       -0.15660173 -0.026838154 -0.0277231 -0.05656208
000290 d2 07 af bd 9d 67 bc bd af 22 d4 bd 15 56 ef bd
       -0.085464135 -0.0919945 -0.10358178 -0.11686341
0002a0 99 1a 93 3c 32 16 1c bd d1 8a 0c be 64 c0 02 be
       0.017957019 -0.038107105 -0.1372483 -0.12768704
0002b0 76 f4 d9 bd 9f b8 86 3d 95 15 e7 3c e3 94 b7 bd
       -0.1064233 0.065781824 0.028208533 -0.08963945
0002c0 01 7c 53 3d ef 80 bf bd 64 88 84 be 00 f1 50 bd
       0.05163193 -0.09350764 -0.25885308 -0.051011086
0002d0 f5 43 c7 bd 1e 67 9d bd 1f 9b 10 bd 07 61 0b be
       -0.09729759 -0.07685684 -0.035304185 -0.13611232
0002e0 df 32 d8 bd 6d 2a e2 bd cc 51 46 3e e3 9c 06 be
       -0.10556578 -0.11043248 0.1936714 -0.13145785
0002f0 a4 88 32 3e dd 93 79 3d ed 8a 7d be 0e 36 02 3e
       0.17434937 0.06093203 -0.24760027 0.12715933
000300 24 46 9a bd 31 21 b4 bd 05 55 1c be cb 5e 07 3d
       -0.075329095 -0.08795393 -0.15266807 0.033049386
000310 c1 56 fc 3c 94 1f 9a bd 43 80 5c be 8f 4e 78 3d
       0.030803086 -0.07525554 -0.21533303 0.060621794
000320 87 07 58 bb c2 ed 9b 3d 2d 3c 09 be 28 36 e5 bd
       -0.003296347 0.07613708 -0.13401861 -0.1119197
000330 53 7c 77 bd 7a f6 0a bd 64 c9 61 bd 1f 22 0b be
       -0.0604213 -0.033926465 -0.0551237 -0.13587235
000340 8f 6c 7b bd 93 08 fc 3c c2 70 03 be f4 8d 25 be
       -0.061382826 0.030765807 -0.12835982 -0.16167432
000350 70 6b b3 bd cc bb a5 3c b9 20 ad bc 39 ff 18 bd
       -0.087607265 0.02023115 -0.021133767 -0.037352774
000360 e9 36 b5 3d c8 a6 90 3a 07 57 53 3e 5e cc 37 bd
       0.08848364 0.0011036033 0.20638667 -0.044872634
000370 56 b8 8a bd 6a b2 5a bd 4b bb 87 bd 1a e9 f1 bc
       -0.067734405 -0.053392805 -0.0662752 -0.029530097
000380 44 49 a0 bd 01 ed 65 3e 1f c7 35 be 81 f1 80 bc
       -0.07826474 0.22453691 -0.1775174 -0.015740158
000390 72 42 eb 3c af 8b ba 3c 76 b3 75 bd bd 22 e0 3c
       0.028718207 0.022771684 -0.0599856 0.027360315
0003a0 32 5e db 3d 5c d5 72 3d 55 c9 f5 3c 11 f7 8a bd
       0.10711326 0.059285507 0.03000323 -0.067854054
0003b0 e9 43 b2 bd 9f 5a af 3e 73 c6 09 3a d4 ab 10 be
       -0.08704359 0.34248826 0.00052557065 -0.14128047
0003c0 b9 ab 01 be 33 32 83 3c 0c 2f bd 3c 34 bd 32 be
       -0.12663163 0.016015148 0.023093723 -0.17454988
0003d0 a4 8b ef bc 06 b2 33 3d ac f1 84 39 a3 d4 44 bd
       -0.02924139 0.04387095 0.00025357062 -0.04805435
0003e0 e7 a7 20 bd cc b9 f9 3b 9a c7 06 be b4 18 3d be
       -0.039222624 0.0076210257 -0.1316208 -0.18466455
0003f0 fa b3 e6 bd 70 75 63 be 31 3c bf bd dd 63 fc 3d
       -0.112647966 -0.22212768 -0.093376525 0.12323735

bias f4 [512]
000000 53 7f 71 bd ab 91 d9 bd bc d4 7b bd ef f6 ae bd
       -0.058959316 -0.10623487 -0.061482176 -0.085431926
000010 ba 07 de bc da 76 eb 3d d1 75 d0 3d c3 be 89 bd
       -0.027103294 0.114972785 0.10178722 -0.06725838
000020 03 7b 1c 3d 6c 97 90 3c 51 ec c3 bd f9 df 04 3d
       0.03820325 0.017650329 -0.09566558 0.03244016
000030 26 b6 1c bc c7 09 72 3d 09 4e 98 3d 4f 0f 9e bd
       -0.009564912 0.059091356 0.07436759 -0.07717764
000040 49 c8 91 bd 5d be a1 bd 25 08 38 bd 7b aa 03 be
       -0.071182795 -0.07897637 -0.044929642 -0.12858002
000050 e9 e6 2b bd 0b 13 cf 3c 85 9f bf bc b3 c2 37 3d
       -0.04196826 0.025277635 -0.023391495 0.044863414
000060 f3 7f 79 3d d5 82 d7 bd 57 8a df bd 78 d6 1d 3d
       0.060913038 -0.10523001 -0.10915058 0.03853461
000070 b1 ef 88 3d 81 0e 70 3d de 34 f4 bd f8 83 20 bd
       0.066863425 0.058607582 -0.11924146 -0.039188355
000080 36 2e 2e bd d0 ea d9 bd 30 56 54 3d e2 d1 d4 3d
       -0.04252454 -0.1064049 0.051840007 0.103915945
000090 06 16 75 3d c7 93 c2 bc a4 6e a7 3d ba f0 60 bd
       0.059835456 -0.023752106 0.081754 -0.054917075
0000a0 f4 35 1e 3e 52 7f ea 3d ce e0 ac 3d 98 7b 00 bd
       0.15450269 0.11450066 0.084413156 -0.03136787
0000b0 a2 57 64 3d bc f1 94 bd ab ac e1 3c 78 79 0d bd
       0.055747636 -0.0727267 0.027548155 -0.03453967
0000c0 c3 5d 8b bc 15 64 90 bd db 00 40 3d d7 70 61 bd
       -0.017012483 -0.07050339 0.046875816 -0.055039253
0000d0 1d 79 0f 3e 22 5a 05 bd 1e c3 08 bd ad e4 60 bd
       0.14011045 -0.03255666 -0.033389203 -0.054905582
0000e0 59 5b b6 bd be dd 06 3e ee 6b f9 bc 37 2a bb 3b
       -0.08904142 0.13170525 -0.030446973 0.0057118195
0000f0 a3 0b e7 bd 04 91 66 3d 40 8c dd 3d 8e 48 6d 3d
       -0.112815164 0.05629064 0.10817766 0.05793052
000100 2c 00 43 bd 32 a4 ac bd f8 cb 4d bd 87 ba 04 be
       -0.047607586 -0.08429755 -0.050243348 -0.1296178
000110 5d bf 09 3e b8 47 06 3c c9 1f 66 bc a6 5d 09 3b
       0.13451906 0.00819581 -0.014045664 0.002096036
000120 e6 86 c4 bb 04 32 c7 bd 25 2c 26 ba 89 93 1f be
       -0.0059975265 -0.097263366 -0.00063389755 -0.15583624
000130 43 19 2e bc c0 c4 90 bd bb ae 87 3d 30 1b 29 3d
       -0.01062614 -0.07068777 0.06625124 0.041285694
000140 b0 2a 55 bd 51 0c 7a 3d 87 d6 f4 3d 78 76 5f 3c
       -0.052042663 0.061046902 0.1195498 0.013639085
000150 4d 90 50 3d 3d 41 e7 3a 19 37 c5 3d ab 02 88 bd
       0.050918866 0.0017643344 0.0962965 -0.06641134
000160 d6 17 8e 3c 38 ea 23 bd c5 64 55 bd 85 2a 95 3d
       0.01734535 -0.04001829 -0.052098054 0.072835006
000170 7c e5 c3 bc e8 85 82 3d b9 09 b0 3d e2 25 9d 3d
       -0.023913138 0.06373197 0.085956044 0.07673241
000180 a2 f3 9a bc 92 a9 bd 3d 36 12 51 bd da f9 9a bd
       -0.018915001 0.092608586 -0.051042758 -0.07567187
000190 2b 8b 8b 3d 81 43 68 bd e8 9a 81 bc c1 00 05 bd
       0.068136536 -0.056705 -0.015820935 -0.032471422
0001a0 2f 05 a5 bd 73 48 aa bb 32 b6 e8 bd 0d d3 f3 3c
       -0.08057629 -0.005196625 -0.11362876 0.029763723
0001b0 e7 de 67 bd e0 31 a7 3d 71 bc ac 3d 77 c2 de bd
       -0.05660906 0.0816381 0.0843438 -0.10876935
0001c0 e1 ff 66 3d 1d 74 2b 3d 68 34 c3 3d 48 6d 0a 3e
       0.05639637 0.04185878 0.0953148 0.1351825
0001d0 fc 1d 0a bd e4 bb 35 3d 8d ff 85 3c 86 37 bb bd
       -0.03372 0.04436864 0.016357208 -0.0914145
0001e0 f3 43 f0 3c a8 0c 8e 3d 39 39 18 3d f9 ef 2d 3d
       0.029329276 0.06936008 0.037163947 0.042465184
0001f0 13 4c f2 bd eb 6d 95 3d 32 7c 35 3d 27 fb 61 bd
       -0.11830916 0.07296356 0.044307895 -0.05517116
000200 f3 30 ba bd 40 b8 92 bd 13 9a 46 3d a1 11 14 bd
       -0.090913676 -0.07164049 0.04848678 -0.036149625
000210 51 2e bf 3d 1e 3a 38 3d da 21 d1 bd f1 f8 f9 3d
       0.09335006 0.0449773 -0.10211535 0.12205685
000220 0f 2f c3 3d ed 24 10 bc 34 08 89 bc bc f0 88 bd
       0.0953046 -0.008797866 -0.016727544 -0.066865414
000230 8e 49 13 bd 90 14 d5 bb 6e 76 60 bd 49 f6 7a bb
       -0.03595882 -0.0065026954 -0.054800443 -0.003829377
000240 bf 66 d8 3b 02 be fe bd 18 8a 28 be 45 eb ad 3d
       0.006604045 -0.12438585 -0.16458929 0.0849214
000250 3a a5 b6 bd 9b 69 cd bc 7e 70 fa bd a1 57 15 bd
       -0.08918233 -0.02507477 -0.122284874 -0.036460523
000260 d5 64 42 39 ba 29 cd bd a5 37 83 bd ad 79 61 3c
       0.00018538845 -0.10017724 -0.06407098 0.01376192
000270 0f 94 20 bd 35 26 8e bd 1e 45 18 bd b6 77 de 3d
       -0.0392037 -0.06940881 -0.03717529 0.10862677
000280 f6 d8 d4 ba b6 65 32 3d 13 38 0e 3e e7 93 42 bd
       -0.0016238976 0.04355403 0.13888578 -0.047504332
000290 33 a0 09 3d 4a 81 f8 3d 39 98 1d 3d d5 34 87 3d
       0.033600044 0.12134035 0.03847525 0.06601874
0002a0 0a 06 05 3d 3b f1 b9 bd 3d 53 a4 bc 4c c9 48 3d
       0.032476462 -0.09079214 -0.020059222 0.049020097
0002b0 10 20 a9 bc 57 6f 1b 3d 32 e8 55 bd ea 8e d7 bc
       -0.020645171 0.03794798 -0.05222339 -0.026313264
0002c0 e0 b6 dd 3d b9 dd 5e 3d 23 c9 d1 bd 07 7c fe 3c
       0.10825896 0.05441067 -0.10243442 0.031065
0002d0 f7 d6 1a bc 9c ad a2 3d a9 39 1b 3d 19 7b c9 bc
       -0.009450666 0.079432696 0.037896786 -0.02459483
0002e0 ab 1c b5 3c a6 10 09 be b6 4f b8 bd 8c fb 5c bd
       0.022108397 -0.13385257 -0.08999579 -0.05395083
0002f0 d8 3a 95 bd 36 72 36 bd ce 15 0f 3e 41 00 7b 3d
       -0.07286614 -0.044542514 0.13973162 0.06127954
000300 55 c2 1f bd d4 f5 b2 3c ec 04 83 bb 7a de 9d bd
       -0.03900369 0.021845736 -0.0039983895 -0.0770845
000310 5b e3 d2 3a 8f 76 63 b9 e5 9d c5 3b 63 19 9d 3d
       0.0016089486 -0.00021692574 0.0060307854 0.07670858
000320 42 cf da 3d 53 4e e0 3d 1e 03 85 bd e5 35 7f 3d
       0.106840625 0.10952439 -0.06494735 0.062307257
000330 1e 15 9a bc 88 21 8c bd cd a3 7e 3d ed b9 b0 3c
       -0.018808898 -0.06842333 0.06216793 0.021573031
000340 0b e9 4d bd 1c 33 84 3c 4c 20 07 bb 3b 00 98 bc
       -0.050271075 0.016137652 -0.0020618616 -0.018554797
000350 b3 2a 11 3d 4f d4 e1 3d d6 ba e7 3d 16 7e 5c ba
       0.03544111 0.11026823 0.11314933 -0.0008411122
000360 2e c3 94 bc 9d 9a 1b 3d 91 1c 50 3d c9 8e c8 bc
       -0.018159475 0.037989248 0.050808493 -0.024482148
000370 b8 5b 61 3d 2a 44 b1 3d ae 78 ad bd 2e 09 77 3d
       0.05501911 0.086555794 -0.084702834 0.06031149
000380 74 25 9c 3d 66 02 7c bd 37 65 85 bd b4 cf 82 bd
       0.07624331 -0.061525725 -0.06513446 -0.063872725
000390 8d 73 26 bd d7 56 c0 b8 b6 16 07 bd f4 a0 44 bc
       -0.04063754 -9.1714486e-05 -0.032980643 -0.012001265
0003a0 ad db 85 be e0 c8 4a 3d 08 a1 a3 3c e3 a8 71 3d
       -0.26144162 0.049507976 0.019974247 0.058998954
0003b0 ce 2d c6 3d 64 f0 14 bc 1f ed 5a 3d bd 95 3a bd
       0.09676705 -0.009090517 0.053448793 -0.045552958
0003c0 26 2c 26 3c df 7a 76 be c6 82 9a bd 95 e8 74 3d
       0.010142362 -0.24070309 -0.07544474 0.05979212
0003d0 53 cc 41 bd c5 44 29 3d 02 55 ac bd cf 73 22 39
       -0.047314 0.04132535 -0.084146515 0.00015492666
0003e0 93 6b 23 3e 35 f8 9f bd 76 8e d9 3c 9b fc 0e 3e
       0.15959005 -0.078110136 0.026557188 0.13963549
0003f0 47 05 36 bd 14 50 18 be 04 0a a6 3c bb 6d 9e bd
       -0.044438627 -0.14874297 0.020268448 -0.07735773

weight f4 [256, 512]
000000 6f ff 43 3d b5 20 5e bd cb 82 37 3c bd 7f 39 bd
       0.047851022 -0.05423041 0.011200617 -0.045287836
000010 ce ea 2c 3e 7d 9d 88 3d 8b 69 71 3d 74 d5 55 bd
       0.16886446 0.066706635 0.058938544 -0.052205518
000020 ea ee 42 3e 11 9e 1e 3d c2 27 14 3d 99 11 f5 bb
       0.19036451 0.038724963 0.03617073 -0.0074789044
000030 4c 63 a3 3d a3 52 4e 3e 09 87 b7 3d e9 a4 50 3e
       0.07977924 0.20148711 0.08961303 0.20375408
000040 7e 60 f6 bc d0 2b 05 3e 33 93 27 3d 71 a6 1e 3d
       -0.030075308 0.13004994 0.040911864 0.03873295
000050 8d 95 37 bd 0e d4 84 be cf c6 ca bd 69 c6 37 3d
       -0.044820357 -0.25943035 -0.09901201 0.044866953
000060 2e 34 65 3d 73 08 02 bc 75 6c 09 bd 5b 5d 54 3d
       0.055957966 -0.007936585 -0.0335507 0.051846843
000070 21 7d b6 bd 52 6c 1f bd 2b 9e 41 bd 82 89 9f 3d
       -0.08910585 -0.03892166 -0.04726998 0.077898994
000080 77 2e 0a bd ea 8d 15 3c b2 22 e2 bd 7c 1a 21 be
       -0.03373572 0.009128073 -0.11041774 -0.15732759
000090 eb 10 15 be a0 14 1a 3e 18 ad 0f 3e 9b fe a0 3d
       -0.14557235 0.1504693 0.14030874 0.07861062
0000a0 10 ba 83 be b0 77 72 3e 71 57 90 3c 93 e8 21 be
       -0.25727892 0.2367847 0.01761982 -0.15811376
0000b0 ea c1 cb bc 35 4c f8 3c c7 67 82 3d 1f 50 84 bb
       -0.024872739 0.030309776 0.0636745 -0.0040378715
0000c0 47 0e 67 bd 6a 6e 08 3e 58 87 13 be cc 7a 78 3d
       -0.0564101 0.1332337 -0.14407098 0.060663983
0000d0 d1 81 12 bd 80 4a 6e bc cd a2 13 bc 63 29 fe bb
       -0.035768334 -0.014544129 -0.009010983 -0.0077563985
0000e0 1d 4b 74 be 8e f5 f6 bd af a2 ab bc 80 5e 08 3c
       -0.23856778 -0.120585546 -0.020951597 0.008323312
0000f0 75 38 0b bd 2f 7f 23 be 66 83 31 3d bc e3 b1 3d
       -0.03398939 -0.15966485 0.043338202 0.08686015
000100 e7 6f 1f bb 34 11 21 3d e3 0f 06 3e 91 4c 85 be
       -0.0024328174 0.039323047 0.13091998 -0.26034978
000110 68 38 9a 3c 01 56 14 be 72 a4 4f 3e 05 f3 98 3c
       0.018825725 -0.14485933 0.20277575 0.018670568
000120 79 91 eb 3b 6f 02 82 3c 91 55 42 bd 1c 55 3c 3e
       0.0071889726 0.015870301 -0.047444884 0.18391842
000130 44 84 92 be a7 57 48 bd 2e 17 46 bd 25 9a 9d bc
       -0.28616536 -0.048911717 -0.04836195 -0.01923854
000140 e6 ba a8 3d 66 d1 04 bd 8c c2 b1 bc b6 79 33 3c
       0.08238773 -0.03242626 -0.021699212 0.010954311
000150 6e 48 63 3e 13 7e 9b 3d 91 39 80 bc 1d 66 13 3b
       0.22195598 0.07592406 -0.01565245 0.0022491284
000160 64 a8 98 3e 50 e1 9b 3d 9a fc 10 bd b8 89 f2 3c
       0.29815972 0.07611334 -0.03539715 0.029606685
000170 58 4a 6f 3d 32 bb 2d 3d f3 a3 72 3e 2c 02 04 3e
       0.05842051 0.04241485 0.23695354 0.12891454
000180 19 80 36 3c 1a ee 00 bd 4e 2a f2 3d fa cd 0c be
       0.011138939 -0.03147707 0.11824475 -0.13750449
000190 be e0 03 bd 98 da 47 bd df 1e c7 3d fe c2 99 3d
       -0.032196753 -0.04879245 0.09722685 0.07507895
0001a0 45 72 7a 3d 66 0d 21 3e 7e ee 9b bc f6 28 77 3e
       0.061144132 0.15727767 -0.01903462 0.24136719
0001b0 fd 3f 57 3d ab 4e 92 bd ee a4 c0 bc 43 2c eb 3c
       0.05255126 -0.07143911 -0.023516145 0.02870763
0001c0 ec 61 d9 3d 1f ae 23 3e 43 31 37 3e 49 ee a0 3d
       0.1061438 0.1598439 0.17889886 0.07857949
0001d0 e0 30 a6 bd 5c 26 87 3d 3a 42 d4 bd c5 73 b8 3c
       -0.08114791 0.06599113 -0.10364194 0.02251614
0001e0 16 99 90 be 09 20 ec 3c 80 0b bc 3d 30 51 3e 3e
       -0.28241795 0.02882387 0.09181881 0.18585658
0001f0 03 94 24 3e 6a 06 35 3d 5f ad d6 bb ae a0 91 3c
       0.16072087 0.04419557 -0.006551429 0.017776813
000200 6c 78 d0 3b 20 d5 5c bd 92 50 a3 bd 54 cc 09 3c
       0.0063620117 -0.05391419 -0.07974352 0.008410532
000210 a8 c4 bd 3d 10 89 70 3d b9 1b 12 3d 11 ed 94 bd
       0.09266025 0.058724463 0.03567097 -0.07271779
000220 89 ec 1f 3d 33 f6 fe 3d a4 e2 8f 3d cc 16 ef bb
       0.039043937 0.124493025 0.0702565 -0.007296419
000230 40 b5 f4 3c f9 fb e5 3d 22 c8 f3 3b 37 3c dc 3c
       0.029871583 0.112297006 0.007439629 0.026884181
000240 0a 42 8b bd e6 81 79 3b 4e ea 46 3c f2 27 bd bd
       -0.06799705 0.003807181 0.0121408235 -0.092361346
000250 dd 01 27 bc ce 2d 8a 3d d5 5c f6 bc 97 ae 24 bd
       -0.010193315 0.06747018 -0.030073563 -0.040205564
000260 07 5f 7f 3d 81 9a 28 bc 0e a7 9d 3d f7 32 54 bd
       0.062346485 -0.010290743 0.07697879 -0.051806416
000270 1b 91 3b 3d cf 9b 89 3d ae 18 b3 bc 04 43 02 3d
       0.04579268 0.06719171 -0.021862354 0.031802192
000280 f5 84 1c bd b6 1e c4 bd bd 8d 17 bd 37 d0 1a 3e
       -0.038212735 -0.0957617 -0.037000407 0.1511849
000290 02 5b 8c 3d fe 65 0d 3c 43 a0 84 bd ea 4a 30 3d
       0.06853296 0.008630274 -0.0647588 0.043040194
0002a0 2a aa ad 3c 20 00 fb 3d 1f 83 ad 3b 0e 21 0a be
       0.021199305 0.12255883 0.005295172 -0.13489172
0002b0 cb 12 25 bd de 68 0a 3e cf db b8 3c 5d aa fc 3c
       -0.040301125 0.13516566 0.02256575 0.030842954
0002c0 a9 de 3b be b2 77 e4 3b 64 3a 30 3d 74 c1 10 3d
       -0.18346657 0.0069722766 0.043024436 0.03534074
0002d0 b3 e0 36 3e d2 6e e5 bd e9 de 4f bc 8b 04 94 3d
       0.17859153 -0.11202778 -0.012687423 0.07227429
0002e0 05 33 cb bc c1 73 0a bd f1 f6 05 bd 39 7b 29 3e
       -0.024804601 -0.033801798 -0.032706205 0.16550912
0002f0 ff 5b 5d bd dc 29 7e 3d 7f a8 4e 3d 34 02 65 3c
       -0.054042812 0.06205164 0.05045366 0.013977576
000300 63 a5 df b9 05 23 6f 3d ff 71 f6 bc 15 8f 74 3d
       -0.00042657097 0.058383007 -0.030083654 0.059706766
000310 f2 32 9e 3d b1 9a 27 3d 60 8b 11 bc 1a cf eb ba
       0.07724561 0.04091901 -0.008883327 -0.0017990798
000320 9f 7e ed bb 8b 74 6b 3d 1e 0c ed 3d 63 4e 6d bc
       -0.0072477604 0.05748419 0.11574577 -0.014484021
000330 51 c3 1f 3e 77 5f e8 3c a8 68 b5 3c 19 8d 7d bd
       0.15601851 0.028365834 0.02214463 -0.06190214
000340 21 6e 32 bd ba ce de bb b7 23 85 3d 3a 61 18 3e
       -0.04356206 -0.006799546 0.06500953 0.14880839
000350 62 94 4b 3e 4c e5 ef bd 6a 04 f0 bb b2 e5 45 be
       0.19880822 -0.11713657 -0.007324745 -0.19325903
000360 2c 21 6c 3c b8 38 3f 3e 54 a2 99 3d 32 89 95 3d
       0.014412206 0.1867398 0.07501665 0.073015586
000370 89 21 a8 3d 5e 33 46 3d 83 53 57 3d c8 d0 4a 3c
       0.08209521 0.04838883 0.052569877 0.012378879
000380 65 8f 1c 3c 0e 0f 32 3e 44 d4 06 3d 35 f9 56 be
       0.009555672 0.17388555 0.032917276 -0.20993502
000390 e5 78 00 3d b5 a0 50 3c e9 e1 58 3e 4b d6 85 bd
       0.031365294 0.012733628 0.21179928 -0.06535014
0003a0 11 13 43 be 10 d1 56 3d 42 53 43 be 74 35 82 3c
       -0.19050242 0.05244547 -0.19074729 0.015894629
0003b0 40 16 81 3d 00 8f df 3c b2 f7 88 3d 4d 6e 7f 3c
       0.06303072 0.027289867 0.06687869 0.015590263
0003c0 70 c8 6e bd ea bb 7d be ad 73 10 3c eb fa d9 3d
       -0.05829662 -0.24778715 0.008816642 0.10643562
0003d0 23 a2 ee 3c e0 f5 ac 3d e4 d1 a0 3c bf be 84 ba
       0.029130047 0.084453344 0.019631334 -0.0010127648
0003e0 c2 a8 2f be a4 88 90 3b d5 b9 59 3d 9f 4b 0b be
       -0.1715422 0.00441082 0.05315574 -0.13603066
0003f0 99 91 49 bd 83 f0 e1 bd 41 2d 10 3d 5a 6a b8 3b
       -0.04921112 -0.11032202 0.035199407 0.0056279125

bias f4 [256]
000000 37 b2 93 3d 8e c2 c2 3c af 6b a7 3d b6 8d ea bb
       0.07211726 0.023774412 0.08174836 -0.0071580065
000010 5e 60 94 bd 32 8f 6b bd 62 fa bb 3d 61 e4 67 bd
       -0.07244943 -0.05750961 0.09178616 -0.056614283
000020 e6 f2 c1 3d e3 54 52 bd b2 19 e5 bc 1f 79 25 3e
       0.09470157 -0.051350486 -0.027966354 0.16159485
000030 71 62 ef bc 96 18 7b 3d 95 5e 67 3c 1d bf 01 bd
       -0.029221745 0.061302744 0.014121671 -0.0316764
000040 9b b6 46 bc 87 91 d8 ba 1b d9 3e 3e fc aa 89 3d
       -0.0121284975 -0.0016522863 0.18637507 0.06722066
000050 db 99 be 3c 70 4e 0b 3e c3 5a 97 bd 38 31 88 bd
       0.023266723 0.1360414 -0.07390358 -0.06650013
000060 07 fb 89 bc 5f 49 8c bd 1a 9d 89 bc 65 4d 04 bd
       -0.016843332 -0.06849932 -0.016798545 -0.03230037
000070 d1 10 91 3d dd 36 90 3e 30 71 89 bd bb 22 6f bc
       0.070832856 0.28166857 -0.06711042 -0.014595683
000080 8e b2 8e 3d ba a0 c8 3d 44 c2 cd 3d b9 5f 58 3d
       0.0696765 0.09796281 0.10046819 0.052825663
000090 b0 39 29 3d c9 8d 24 3d 33 b7 c9 3b 81 d9 d3 3d
       0.04131478 0.04017428 0.0061558723 0.1034422
0000a0 ad ff 5c 3d 4b 88 2b bd 58 39 1d 3c 24 5d 15 3e
       0.05395477 -0.041878026 0.009596191 0.14586312
0000b0 fb 49 55 bd a4 80 cb 3d f5 98 cf bd ad 39 79 3c
       -0.052072506 0.099366456 -0.10136596 0.015211505
0000c0 f9 7c 45 bd 78 e7 e7 3b 51 74 ba bb c1 1d 2b 3d
       -0.048214886 0.007077154 -0.0056901355 0.041776422
0000d0 80 a3 56 bb 8a fa 7f 3c 39 a1 99 bc b2 a1 07 3d
       -0.0032751262 0.015623698 -0.018753635 0.03311319
0000e0 bd 80 ad 3c b4 ca 30 3e 4c 6d 8a bc 64 cf ef bb
       0.021179551 0.17264825 -0.01689782 -0.007318424
0000f0 c0 61 9b 3d dd 93 8d bd 27 ad 9d bc 66 6e 4a 3d
       0.07587004 -0.06912968 -0.019247605 0.04942169
000100 17 c7 fb ba d4 d0 40 bd ae a0 31 bc a2 ea ba bc
       -0.0019209114 -0.047074154 -0.010841532 -0.02281696
000110 52 ae 20 bc 0a 15 04 bd d0 34 81 3d 63 b5 04 3d
       -0.009807186 -0.032246627 0.06308901 0.032399546
000120 4e 66 08 bd 21 ce 2e 3d 92 48 3b bd 98 1a ef 3c
       -0.03330069 0.04267705 -0.045723505 0.029187486
000130 f1 2b 0a bd b7 96 10 3d d3 8f ed bc 0f 81 e1 bb
       -0.033733312 0.035299983 -0.028999245 -0.00688184
000140 4a 93 90 bd 3c f0 18 bc bd 86 98 3c 53 58 a0 3d
       -0.07059343 -0.00933462 0.018618936 0.078293465
000150 34 21 3e 3d d2 fe 47 3d bd e8 07 3d 6f 45 14 3e
       0.046418384 0.048827 0.03318094 0.14479612
000160 2c 7f f6 3d 56 00 e9 3d c2 a8 1b bd 4e ed ee bc
       0.12035975 0.11377017 -0.038002737 -0.02916589
000170 3e 97 a7 3d 7a b2 54 3c 61 fb 18 3c 57 a2 87 bd
       0.08183144 0.012982005 0.009337277 -0.06622761
000180 01 e1 0c 3e e2 a2 ca bd d5 3e 43 3d 4f 6f 82 bd
       0.13757707 -0.09894349 0.047667343 -0.06368887
000190 6b 11 80 bd 3a c8 8c bd ab ac 0f 3d f4 a2 32 bd
       -0.06253322 -0.06874128 0.03507678 -0.043612435
0001a0 e7 0c 8a bd c2 d1 86 3d c3 08 d4 bc 83 b7 22 3c
       -0.06740742 0.06582977 -0.025883084 0.009931448
0001b0 50 44 4e bc af 92 a5 bb b7 33 27 3d 5b 54 73 bd
       -0.012589529 -0.0050528864 0.040820803 -0.05940662
0001c0 cb cf 7f bd 4c 6b 85 3d 5b f1 7f bd 36 0b 61 bb
       -0.062454026 0.06514606 -0.062486034 -0.0034338958
0001d0 cf 4f 84 bc 67 f1 31 be da 34 49 3a 66 2a 26 bb
       -0.016151337 -0.17377244 0.0007675417 -0.0025354861
0001e0 ad c6 f6 bc 97 c8 40 bc 68 11 71 bd 22 3f 5f bd
       -0.030124033 -0.011766574 -0.05885449 -0.054503568
0001f0 2b f5 27 3d 6d d8 92 3d 1a b5 87 3d d8 30 8a bd
       0.041005295 0.07170186 0.06626339 -0.067475975
000200 bc af 7d bd 62 6d 0f 3c 1d d3 b2 bc 7a 1e d4 bc
       -0.06193517 0.008754106 -0.021829182 -0.025893439
000210 63 f7 2c bd d8 6e a4 3c 4c 0c bc bd ff 9e a5 3d
       -0.042228114 0.020072386 -0.09182033 0.08086967
000220 35 18 6b 3d 0f a5 46 bd b4 1f a2 bd b0 26 98 3e
       0.057396132 -0.048497256 -0.07916203 0.29717016
000230 05 d3 ab bc a9 68 be bb e0 14 4f bd d3 7b 32 bc
       -0.020974645 -0.0058108163 -0.050557017 -0.01089378
000240 bc 56 87 bd e9 11 1a bd a3 61 1e 3d d5 ac 20 3d
       -0.0660834 -0.037614737 0.038667332 0.039227325
000250 3b 41 58 3e 24 7e 9b bd fc 93 52 bd be a7 2d bd
       0.21118633 -0.07592419 -0.05141066 -0.0423963
000260 2d 10 97 bd 18 b3 a9 3e 29 73 78 bd f8 c9 d6 3b
       -0.07376132 0.3314445 -0.0606567 0.0065548383
000270 ec dc cc bc 4e 4a cd 3d 59 7e 59 3d 85 27 20 3c
       -0.025007688 0.10023938 0.05309901 0.009775047
000280 88 49 04 bd 62 f5 88 bd fc b6 99 3d 4d 86 c5 bc
       -0.032296687 -0.06687428 0.075056046 -0.024111891
000290 f3 89 b5 3d f4 24 6c bd 0e 6f 96 bc 05 4d 95 bd
       0.08864202 -0.05765243 -0.018363502 -0.07290081
0002a0 e1 7e d8 bb ec 99 3b 3e 6c 11 95 3d 21 f0 0d bc
       -0.006606922 0.18320435 0.072787136 -0.008663208
0002b0 4a 94 96 bd fb a1 9c 3d f8 8f 5a bc 01 67 67 3b
       -0.07352503 0.07648083 -0.013339989 0.0035309198
0002c0 e7 33 82 bc 03 e5 46 bc a6 2f 22 bd 65 47 13 bc
       -0.01589389 -0.012139562 -0.039596222 -0.00898919
0002d0 a7 bf 18 bc 7f 4c 3f 3d 96 1f 67 bc 6d 0e 2c bc
       -0.009323037 0.04670381 -0.014106652 -0.010501486
0002e0 0d de c0 bc d6 3b 2c bd 7b fe 91 bc c0 9b a9 bc
       -0.023543382 -0.04204925 -0.017821541 -0.02070415
0002f0 b9 a0 e0 3c 4b 6e c2 3c 28 d6 45 bd f3 29 ce 3d
       0.027420389 0.023734232 -0.04829994 0.10066595
000300 c8 df cf bc cc d5 25 bd 6f ac 90 bd 13 ed 96 bc
       -0.025375262 -0.040487096 -0.07064139 -0.018423593
000310 fa f9 0d 3e e9 62 a2 bc 13 2f 40 3d 00 b0 96 bd
       0.1386489 -0.019822555 0.046919893 -0.07357788
000320 2e 10 66 bd aa f1 a3 bd 80 20 49 3a c6 c5 27 3d
       -0.056167774 -0.08005078 0.00076723844 0.040960096
000330 a6 ed 62 3c 82 df b1 bc ae 07 0a 3b 6b 44 58 bd
       0.013850605 -0.021713022 0.0021061706 -0.052799623
000340 45 c1 a2 3c 6f 78 3b bd 47 ca 43 bd bd b5 8a 3b
       0.019867549 -0.04576915 -0.04780033 0.0042330907
000350 c6 37 4d 3e 20 5e 4b bd ce 7f 97 bd 90 64 97 bd
       0.20040807 -0.04965031 -0.07397424 -0.07392228
000360 1f 88 53 3d 78 84 88 bc 46 41 90 3d ba fe ea bc
       0.051643487 -0.016664729 0.070437 -0.028685916
000370 1b 79 65 bd 58 f6 66 3a c9 18 b8 bc 1f 8a 12 bb
       -0.0560237 0.0008810512 -0.022472756 -0.0022360159
000380 96 7c 3f bd a1 57 db 3c 04 8d c5 bc 9f 0d 1b 3e
       -0.046749674 0.026775183 -0.024115093 0.15141915
000390 44 55 67 bd ea 91 7f ba 8e 0a 4e 3d 3e fa 9c bc
       -0.0564778 -0.0009749221 0.050303034 -0.019162294
0003a0 2a cd 81 3d f9 11 03 3e 5f 0f 6e 3c 4f 2a 5b bd
       0.0633796 0.12799825 0.014530032 -0.053507145
0003b0 26 91 39 bc 6c 40 d7 3c 90 e3 1a 3c 38 64 30 bd
       -0.01132611 0.026275836 0.009453669 -0.043064326
0003c0 37 11 cc 3d 5b 15 8b bd 70 86 87 3d df 83 6b 3d
       0.09964221 -0.067911826 0.06617439 0.05749881
0003d0 86 53 46 bd ca ec 3a 3c 82 63 69 3d 02 c1 c5 3e
       -0.048419498 0.011408994 0.056979664 0.38623816
0003e0 9d 33 c9 bc a3 64 05 bc 11 7a 66 bd 6c 71 95 bd
       -0.024560744 -0.008141669 -0.056268755 -0.07297024
0003f0 ef 0c 0b bd c3 01 52 3d 95 c1 b7 3c 69 8d b4 bd
       -0.03394788 0.05127121 0.022431174 -0.08816034

weight f4 [8, 256]
000000 fc 90 5f 3d de 1b 38 3b 38 af 86 bc e0 7d 9a bc
       0.054581627 0.0028092782 -0.016440973 -0.01885885
000010 c3 6f 50 3d 9c 3f e0 bc 5d ea 62 3d ba 22 e9 bc
       0.050887834 -0.027374081 0.055399287 -0.028458942
000020 44 de a4 bd e9 91 ff bb 7b bf 46 3d 1b 31 4d 3d
       -0.08050206 -0.0077993763 0.048522454 0.05009566
000030 43 8b d0 bc ad 3a ed 3c 8e 98 b5 bb 98 b8 96 bc
       -0.02545703 0.028958643 -0.0055418676 -0.018398568
000040 3c 81 47 3c f1 96 be 3c 6c 6e 5b be 40 f6 a6 3d
       0.012176808 0.023265334 -0.21428841 0.08152437
000050 76 4c 92 3c 39 20 80 3c b7 71 50 3c c8 bf 04 bd
       0.017858725 0.015640365 0.012722424 -0.03240946
000060 9c 20 f4 3c c7 42 a3 3b f4 c0 01 bd 1e ae 88 bc
       0.029800706 0.0049823257 -0.031678155 -0.016684588
000070 a5 47 1b bc 05 8f 1b be f8 85 36 bc e0 1d 85 3d
       -0.009477531 -0.15191276 -0.011140339 0.06499839
000080 37 c6 a3 3d 35 77 8f 3b 34 ae cf 3c e9 59 a7 3d
       0.07996791 0.0043782243 0.025351621 0.08171446
000090 1e a7 87 3c 35 bc 90 3d a9 35 9a 3d 16 9b 8e 3d
       0.01655918 0.07067148 0.07529766 0.06963174
0000a0 55 25 29 3c 70 42 f7 bd 20 ce 6c 3d 00 4f 96 bd
       0.010323842 -0.12073219 0.057813764 -0.07339287
0000b0 8b 36 cc bc ee 3f c9 bd 54 6d cf bb fa 4b 84 bc
       -0.024928352 -0.09826647 -0.0063301716 -0.01614951
0000c0 30 88 a4 3c 12 1c 02 bd b7 db f9 3c 27 3a 31 3d
       0.02008447 -0.03176505 0.030500276 0.04326835
0000d0 0b 6e 7a 3d d4 18 01 3d f8 89 59 be 72 6a a7 3b
       0.0611401 0.03151782 -0.21244037 0.005109125
0000e0 cf 10 9c 3d c6 69 77 bc b1 2d e9 bc 5b 6b cd bc
       0.076203935 -0.015100902 -0.02846417 -0.025075605
0000f0 9d f1 2e 3d d9 36 7b bd 91 53 98 3c 6d 6a a6 3d
       0.04271089 -0.061331604 0.018594535 0.08125768
000100 23 01 11 3d 59 fb 89 3d e8 35 03 bc fa 45 d4 bc
       0.035401475 0.06737394 -0.008008458 -0.025912274
000110 e7 0d b2 bc a3 af 07 3d 82 35 de 3d d8 65 27 3d
       -0.021735145 0.033126485 0.108500496 0.04086861
000120 86 57 ab 3d 5a 84 8f 3d 2c e2 5f 3d f1 67 e9 3d
       0.08366303 0.07007666 0.054659054 0.113967784
000130 76 2f 06 3d f3 d3 05 bd 83 54 b2 3b c4 ef 6b bc
       0.032760106 -0.032672834 0.0054422035 -0.014400426
000140 77 c1 7f 3b d6 9a 87 3c 42 11 25 3c b8 ae 92 3c
       0.0039025226 0.016553324 0.010074915 0.017905578
000150 ea 84 de 3c 79 6e 9c 3d 15 68 93 3b b5 df 7f 3d
       0.027162988 0.076382585 0.0044984915 0.062469203
000160 6c 24 e3 bc 64 74 42 3d df 94 27 3d d2 f6 53 3d
       -0.027727328 0.04747428 0.04091346 0.051749058
000170 0b af 30 bc 48 25 b6 bc df 40 35 3d 05 d9 3c 3c
       -0.010783921 -0.022234574 0.04425132 0.011526351
000180 2f 3e 0d bd dd d5 93 3d 4a ae 63 bb 13 6c fd bb
       -0.03448313 0.072185256 -0.0034741336 -0.0077338307
000190 d5 b0 40 bc 9e 87 71 bc 37 a7 9c 3d 22 d3 97 bc
       -0.01176091 -0.014741806 0.07649081 -0.018533293
0001a0 cb 5a 49 bc 55 ea ef bd 3f 6e 3d 3b 78 ba 34 bc
       -0.012289713 -0.11714617 0.0028904823 -0.011030786
0001b0 61 62 8d bc c4 a2 1f 3d c4 a4 d5 3c 74 8c 41 3c
       -0.017258825 0.038973585 0.026079543 0.011813272
0001c0 62 69 b7 b9 87 1f c0 3d aa 17 9f bc b5 13 a0 3c
       -0.00034982996 0.09381013 -0.019420464 0.019540647
0001d0 e1 fa a2 3a 9b a9 a3 bd 87 93 d9 bc 87 02 17 3d
       0.0012434387 -0.07991334 -0.026559604 0.036867645
0001e0 6a 15 68 3d 84 05 9f 3c e4 36 df 3c 1e dd 00 bb
       0.056661047 0.01941181 0.027247854 -0.0019663046
0001f0 1d 9c 36 be 27 a6 68 3c 7d e2 38 be ac 7f 43 bb
       -0.1783299 0.01419977 -0.18055148 -0.0029830737
000200 86 f9 3c bc fc 43 20 bc 34 1d 74 3d d3 9a 22 bc
       -0.0115341 -0.009781834 0.059598163 -0.009924608
000210 cc 68 89 3a cf 99 8f 3d 68 72 ad 3c bf 67 16 3d
       0.0010483502 0.070117585 0.021172717 0.036720034
000220 32 37 1f bc 24 67 e7 3c 4f 9f 58 3d 83 8b e9 3d
       -0.009717749 0.028247423 0.052886304 0.11403563
000230 23 17 56 bc 8e c9 8e 3c ff 13 4b 3d a1 21 c7 3c
       -0.01306704 0.017430093 0.049579617 0.024308028
000240 49 5b aa 3a 0d 8e d0 bc 29 5a 33 bc a0 b4 92 3d
       0.0012997176 -0.02545836 -0.010946789 0.07163358
000250 2e 41 49 bd 96 24 04 3e a2 e4 0d 3d 7b b4 1e bc
       -0.049134426 0.12904581 0.03464187 -0.009686585
000260 97 9e 1e bc 2d eb 0d be b3 94 eb 3c 03 f3 cb bc
       -0.009681365 -0.13859244 0.028757429 -0.02489615
000270 b5 59 00 bd 8d b3 63 3d 7e fe e2 bc f2 fe b1 bd
       -0.03133555 0.055591155 -0.027709242 -0.08691205
000280 35 f8 a3 bb e3 e5 6e 3c f7 ff 7d bc ca e2 71 bd
       -0.005003954 0.014581176 -0.015502921 -0.059054174
000290 51 e4 1e 3d e5 9a 3f 3c f0 e0 81 3d ce 00 f7 3b
       0.03879196 0.011694645 0.063417315 0.0075379377
0002a0 eb de 0f 3d 24 a9 43 3d cc b1 d4 3c a1 4d 31 3d
       0.0351247 0.047768727 0.025963686 0.043286923
0002b0 a2 eb c4 bc 4c 7c 41 3d 5d c9 0e 3d 7e c1 da bc
       -0.02403814 0.04723768 0.034860004 -0.026703592
0002c0 b7 88 b9 bc 4c 89 ad 3d 0b bd 33 3d 2a c8 9e bc
       -0.022648199 0.08473453 0.043881457 -0.019382555
0002d0 7b 55 11 bc f1 51 d9 3d 8c 64 19 3d 9a 1d 7a bc
       -0.008870478 0.10611332 0.037449405 -0.015265847
0002e0 e4 00 03 bd bc d5 d5 bb c8 57 c6 3b 53 d0 c5 ba
       -0.03198327 -0.0065257233 0.006052945 -0.0015091993
0002f0 25 68 bb 3d 45 49 94 3d ed 62 9d 3d 6e 34 a6 3d
       0.09150723 0.072405376 0.07684884 0.08115469
000300 91 96 a8 3d 1c b2 2b 3d c8 d8 4d 3c 74 86 4b 3d
       0.08231843 0.041917905 0.012563892 0.04968877
000310 f8 96 4d bd 20 9b fb 3b 45 4e 05 3c 23 28 a6 3d
       -0.050192803 0.0076784045 0.008136337 0.08113124
000320 5c 61 9d bc a0 58 16 bb 57 f9 19 bd a4 ff 57 3d
       -0.019211464 -0.0022941008 -0.037591305 0.052734032
000330 aa 31 07 bc a6 bb b1 3d 0d da 97 bc e0 d7 1f bc
       -0.008251587 0.08678369 -0.018536592 -0.009756058
000340 d6 81 2d 3d 9e 32 d1 bc e1 81 1b 3c 2c b8 97 bc
       0.04236015 -0.025536831 0.009491415 -0.018520437
000350 21 4f bd bc 1e 88 65 bc 16 c6 04 bc 11 c4 37 3d
       -0.02310902 -0.014009504 -0.008103868 0.044864718
000360 ed b2 4a 3d 9e 79 97 bc 15 5b a3 3d 83 60 0c bc
       0.049487043 -0.018490609 0.07976357 -0.008567932
000370 4c 16 0b 3d 0a 14 9b 3d 7e 1c 0d 3d 69 31 ef bc
       0.03395681 0.075721815 0.034451 -0.029198365
000380 d1 79 10 bc 70 85 5a 3d 4c 0e 90 3d d6 68 06 bd
       -0.008818106 0.053349912 0.07033977 -0.032814823
000390 e1 2a ba ba 1d 6c bb 3d 9a 91 8b 3d e9 98 98 bc
       -0.0014203453 0.0915148 0.06814881 -0.0186276
0003a0 5c 13 20 be a6 5f 89 3c 64 9f 4b 3d 21 98 53 bc
       -0.15632385 0.016769242 0.049712554 -0.012914688
0003b0 e9 49 a2 bb 27 bd dc 3c 68 e0 62 bc 17 17 f8 bc
       -0.0049526584 0.026945664 -0.013847448 -0.030284448
0003c0 a9 44 b8 3c 1f 8a 2d bc ce e9 25 3c c7 5d 9d bc
       0.022493677 -0.010592013 0.010126544 -0.019209756
0003d0 b4 a7 0c 3d 1f 57 5d 3c 31 4d 97 3d c0 fa 7b 3d
       0.03433962 0.013509541 0.0738777 0.06151843
0003e0 59 f8 57 bc f2 9b 9f bc c7 fe c7 3c 24 a3 28 3c
       -0.013181769 -0.01948354 0.02441348 0.010292802
0003f0 f5 6e ef bc 96 c2 ca 3c 62 ab 79 3d 9f f0 70 3c
       -0.029227713 0.024750989 0.06095446 0.014705806

bias f4 [8]
000000 88 f3 21 bd f9 df 9e bc ad 0d d7 bd b5 b5 62 bd
       -0.03953889 -0.019393908 -0.10500655 -0.05534907
000010 2a 9e f3 3c 44 25 a3 3d 60 af 8d 3d 6e 00 9b 3d
       0.029738504 0.07966092 0.06918216 0.07568441
