weights/weights_trained_on_pseudo.pth (torch, 811800 bytes, 8 tensors)

weight f4 [128, 15]
-0.00091317226 0.110760026 -0.18891224 -0.15589035 0.2044867 -0.018324858 -0.18858661 -0.26870447
0.1789542 0.0044033057 -0.013862187 0.05117119 -0.31902483 0.105121896 0.1976904 0.04910158
0.104167916 0.27601314 0.21874364 -0.15529923 -0.6469071 -0.38152495 0.46984267 -0.089488395
0.16019192 0.081623726 0.11850508 -0.05644805 0.071718864 0.02588429 0.14651816 -0.22820136
0.016714372 0.012464993 -0.26164013 -0.23995675 -0.046515673 -0.13148397 0.20748098 0.068859324
0.13002421 -0.069841 0.20388104 0.06654464 -0.1891707 -0.32274133 -0.4157032 0.24574648
0.45107704 -0.2627142 0.25252932 0.14389177 -0.32722694 0.124870345 0.116820455 -0.22069995
-0.33828217 0.1940855 -0.16292313 0.2768068 -0.17342915 -0.0011225819 -0.28006896 0.32859
-0.1355715 -0.010738552 0.056672554 0.20668404 -0.43124136 0.18731679 -0.21240714 -0.19989571
-0.15732148 0.039696336 0.038708422 -0.19732374 0.04604607 -0.14579402 -0.010353247 0.18871693
-0.0040787114 -0.14261124 0.20302251 -0.09008691 -0.177159 -0.12751588 -0.12943555 0.04015416
-0.24488375 -0.08766085 0.18011811 0.15865014 0.05601166 -0.03437316 -0.2162539 -0.08591643
-0.09630305 -0.17928472 -0.10591171 0.19671732 0.16394974 -0.057641845 -0.12029423 0.17254557
-0.20419267 -0.049173787 0.078316316 0.08949583 -0.2086728 -0.06583578 -0.21765688 0.087542735
-0.14202614 0.14179924 0.10997184 -0.08984418 0.034374624 -0.019650238 -0.10529008 -0.18984917
0.23156099 0.19598778 0.14297874 -0.15049228 0.109398834 -0.1847415 0.004655709 -0.2754231
-0.21023238 0.15491511 -0.26360008 0.071054086 0.06711138 0.026486233 -0.02105359 0.0999524
0.1488153 0.2022297 0.4449468 -0.12341576 -0.48930177 0.1361876 0.4840561 -0.23553987
0.069841884 -0.07657317 -0.017614486 -0.05407704 -0.01277162 0.029075982 -0.22815749 -0.12614597
0.114156835 0.02499456 0.059554014 -0.2363563 -0.06903549 -0.051088672 -0.009792324 -0.061921604
-0.031966385 0.059158437 0.030537337 -0.12553838 -0.07237153 0.12900409 -0.21676606 0.10142653
-0.45613322 -0.19580221 0.35176432 0.0012964786 -0.14490981 -0.15754475 0.011539957 -0.12953797
-0.31624407 0.0015671562 -0.1770262 -0.038129747 0.2805065 -0.12680519 0.46359882 -0.8383497
0.19060679 -0.05171516 0.10044407 0.071353376 0.05533459 -0.006762087 -0.036898814 -0.062232602
-0.15530132 0.0790413 0.14433663 0.18296646 -0.035548866 0.24840106 -0.21858239 -0.21733123
-0.04319821 -0.19210652 -0.06396487 -0.07705379 -0.031373724 -0.091000415 -0.23981826 0.17189167
-0.02871331 -0.11651033 0.039015282 0.107477866 0.43120268 -0.111422546 0.093577504 -0.26806515
-0.17301123 0.078096345 0.26881632 -0.16336542 -0.104130946 0.12017944 0.24955197 -0.06358878
0.15131493 0.100320466 -0.0784404 0.11490161 0.071256794 0.12559447 -0.30617794 -0.26607108
0.06566377 -0.03322498 0.036147114 -0.1174835 -0.0038277642 -0.05918235 -0.031936277 0.034825783
0.1927367 -0.13330676 0.3990611 -0.31641692 0.02634379 -0.016755141 -0.30304277 -0.121337146
0.5116681 -0.09405312 -0.10705391 0.10682151 0.0014851531 -0.009103154 -0.025165454 -0.16536924
00000000: f461 6fba 27d6 e23d 3672 41be b8a1 1fbe
00000010: f664 513e 031e 96bc d91c 41be a293 89be
00000020: c53f 373e 9b49 903b 3a1e 63bc e298 513d
00000030: 3957 a3be 264a d73d 5a6f 4a3e bd1e 493d
00000040: fd55 d53d 9851 8d3e 55fe 5f3e c306 1fbe
00000050: b49b 25bf 3d57 c3be 388f f03e b145 b7bd
00000060: 5a09 243e 572a a73d cbb2 f23d 1236 67bd
00000070: 57e1 923d 4a0b d43c db08 163e 9ead 69be
00000080: 94ec 883c f839 4c3c b2f5 85be 39b7 75be
00000090: 3887 3ebd bca3 06be e575 543e 1e06 8d3d
000000a0: 1125 053e cc08 8fbd 31c6 503e 8e48 883d
000000b0: f7b5 41be 5a3e a5be 0dd7 d4be f7a4 7b3e
000000c0: 92f3 e63e 7a82 86be 864b 813e 5d58 133e
000000d0: 4a8a a7be 06bc ff3d 903f ef3d 2bff 61be
000000e0: 5233 adbe 59be 463e 52d5 26be 9fb9 8d3e
000000f0: 6997 31be 9923 93ba 3365 8fbe f33c a83e
00000100: 41d3 0abe c0f0 2fbc 7b21 683d fba4 533e
00000110: abcb dcbe f9cf 3f3e 4281 59be 76b1 4cbe
00000120: e218 21be a098 223d b98c 1e3d 3c0f 4abe
00000130: ce9a 3c3d 074b 15be aaa0 29bc 033f 413e
00000140: b6a6 85bb ae08 12be 22e5 4f3e 7c7f b8bd
00000150: 2b69 35be 8693 02be c18a 04be b078 243d
00000160: cec2 7abe 8887 b3bd e270 383e 2f75 223e
00000170: 7b6c 653d dfca 0cbd aa71 5dbe f4f4 afbd
00000180: 893a c5bd 6a96 37be 3de8 d8bd 4470 493e
00000190: 71e2 273e db19 6cbd d25c f6bd c9af 303e
000001a0: e217 51be 746a 49bd 4e64 a03d 9749 b73d
000001b0: 53ae 55be e9d4 86bd 72e1 5ebe 9b49 b33d
000001c0: 4d6f 11be d233 113e eb38 e13d 3a00 b8bd
000001d0: 68cc 0c3d 89f9 a0bc 53a2 d7bd d267 42be
000001e0: 531e 6d3e 05b1 483e 0569 123e a61a 1abe
000001f0: 7f0c e03d e02c 3dbe eb8e 983b 4204 8dbe
00000200: 2847 57be 11a2 1e3e 97f6 86be ce84 913d
00000210: b171 893d a8f9 d83c 9478 acbc d8b3 cc3d
00000220: 0a63 183e 4d15 4f3e 11d0 e33e 67c1 fcbd
00000230: c385 fabe c374 0b3e 33d6 f73e 5d31 71be
00000240: 4309 8f3d 65d2 9cbd 414c 90bc e37f 5dbd
00000250: 0f40 51bc c130 ee3c 1ea2 69be 692c 01be
00000260: 0fcb e93d 64c1 cc3c e9ee 733d 6307 72be
00000270: 7b62 8dbd 5b42 51bd fc6f 20bc 82a1 7dbd
00000280: 2fef 02bd 1e50 723d 7029 fa3c 228d 00be
00000290: 8637 94bd a619 043e ecf7 5dbe b6b8 cf3d
000002a0: 4b8a e9be 6080 48be 741a b43e 9aee a93a
000002b0: 3d63 14be 6953 21be 1612 3d3c 9aa5 04be
000002c0: beea a1be 0969 cd3a 5b46 35be f02d 1cbd
000002d0: 8c9e 8f3e 38d9 01be d35c ed3e 169e 56bf
000002e0: 6d2e 433e 47d3 53bd 9fb5 cd3d b821 923d
000002f0: 86a6 623d 7f94 ddbb 3623 17bd 9de7 7ebd
00000300: 4f07 1fbe 68e0 a13d fbcc 133e 8f5b 3b3e
00000310: b09b 11bd d95c 7e3e 10d4 5fbe 148c 5ebe
00000320: 9bf0 30bd 92b7 44be 0400 83bd 61ce 9dbd
00000330: bc81 00bd 6d5e babd eb92 75be 5f04 303e
00000340: 2d38 ebbc f89c eebd 7dce 1f3d 5b1d dc3d
00000350: 99c6 dc3e 8131 e4bd 90a5 bf3d d63f 89be
00000360: db29 31be faf0 9f3d 4ba2 893e 4449 27be
00000370: 9b42 d5bd a320 f63d 8d8a 7f3e d63a 82bd
00000380: 4df2 1a3e d174 cd3d 5ca5 a0bd 8951 eb3d
00000390: 15ef 913d d69b 003e 5bc3 9cbe 783a 88be
000003a0: ba7a 863d eb16 08bd ff0e 143d 309b f0bd
000003b0: 3adb 7abb 3169 72bd 9dcf 02bd 7ba5 0e3d
000003c0: c55c 453e 9181 08be bd51 cc3e 6601 a2be
000003d0: efce d73c 1442 89bc 6c28 9bbe 9c7f f8bd
000003e0: aefc 023f ec9e c0bd 153f dbbd 3cc5 da3d
000003f0: 78a9 c23a 6525 15bc c827 cebc 8e56 29be

bias f4 [128]
0.035105858 -0.2090752 -0.07160766 0.14454436 0.35607022 -0.15392907 -0.05044018 -0.0015735526
-0.10172478 -0.11174153 -0.11910997 0.22620507 -0.33149627 -0.23844674 -0.3168164 0.18077178
-0.065736234 0.063252255 -0.124652706 -0.016171806 0.28576007 -0.19616017 0.16559112 -0.09239977
0.27451378 -0.023585344 -0.17580687 -0.17961514 -0.12277266 -0.21811368 -0.24411736 -0.21505769
0.054726996 -0.2110156 -0.221179 -0.117168225 -0.17309956 0.111703075 0.072904065 -0.15367363
-0.0042911046 -0.048653044 -0.29112732 -0.16951725 -0.009243122 -0.13153547 0.17479788 0.010157166
-0.17517233 0.08036616 0.0054459465 0.027608952 0.23291223 -0.015997462 -0.27355325 0.085408
-0.23339579 -0.06771251 0.07455069 -0.16372666 -0.18759875 -0.08017457 0.036595184 0.030820107
-0.14994691 -0.07226547 0.13770957 -0.15238288 -0.24870484 -0.16555198 -0.15623319 -0.07097688
-0.14424041 -0.11963482 0.10045992 0.21558632 -0.16223584 -0.2761409 0.13773859 -0.25692296
0.08619047 -0.19723547 -0.07122701 0.035123236 -0.048260413 0.11122346 -0.0914466 -0.07972895
0.2763605 -0.121966265 0.067078516 -0.09869704 -0.12892604 -0.38203537 -0.033192236 0.097980924
0.13145447 0.0568185 -0.046608143 -0.23415844 0.04009086 0.072889246 0.25719854 0.2527934
-0.039561074 0.20422225 -0.11166842 0.018001735 -0.06747165 0.18214609 0.23485528 0.19274974
0.09630647 -0.09968988 -0.21972238 0.24031724 -0.030248804 -0.10942807 0.17038754 0.2527779
-0.23678021 -0.06339287 0.053221684 -0.16844587 -0.057853576 0.15131558 0.12899144 -0.20829266
00000000: 29cb 0f3d cf17 56be 09a7 92bd 7003 143e
00000010: d64e b63e 959f 1dbe 5d9a 4ebd aa3f ceba
00000020: 1555 d0bd bed8 e4bd eeef f3bd 4da2 673e
00000030: e1b9 a9be 622b 74be c235 a2be 3d1c 393e
00000040: b8a0 86bd 668a 813d eb49 ffbd bc7a 84bc
00000050: 254f 923e 36de 48be b890 293e 173c bdbd
00000060: 128d 8c3e 0d36 c1bc b706 34be 08ed 37be
00000070: 3b70 fbbd 3159 5fbe e7f9 79be 1538 5cbe
00000080: 6a29 603d 7914 58be bf7c 62be e5f5 efbd
00000090: 0341 31be 95c4 e43d ba4e 953d 9f5c 1dbe
000000a0: 659c 8cbb 6a48 47bd a40e 95be ee95 2dbe
000000b0: 7770 17bc 3cb1 06be 37fe 323e 3e6a 263c
000000c0: 6060 33be 0397 a43d e973 b23b 2b2c e23c
000000d0: 8b80 6e3e 1c0d 83bc 2c0f 8cbe 64ea ae3d
000000e0: 4eff 6ebe dbac 8abd 08ae 983d f6a7 27be
000000f0: e319 40be 9132 a4bd d5e4 153d 737a fc3c
00000100: af8b 19be ebff 93bd bd03 0d3e 420a 1cbe
00000110: 7bac 7ebe 7586 29be 98fb 1fbe 545c 91bd
00000120: c2b3 13be 1a03 f5bd eebd cd3d a9c2 5c3e
00000130: 2721 26be 5762 8dbe 580b 0d3e 688b 83be
00000140: a184 b03d 18f8 49be 77df 91bd 62dd 0f3d
00000150: b6ac 45bd 20c9 e33d 5b48 bbbd ef48 a3bd
00000160: 207f 8d3e 73c9 f9bd 7660 893d ac21 cabd
00000170: 3005 04be 249a c3be 95f4 07bd 39aa c83d
00000180: 009c 063e 84ba 683d 2ee8 3ebd 3bc7 6fbe
00000190: 5036 243d f546 953d 87af 833e 236e 813e
000001a0: cb0a 22bd a31f 513e 6ab2 e4bd 6078 933c
000001b0: 942e 8abd 8184 3a3e e77d 703e 3060 453e
000001c0: 543c c53d 352a ccbd e7fe 60be b915 763e
000001d0: 57cc f7bc d31b e0bd 127a 2e3e 1b6c 813e
000001e0: 8376 72be 1fd4 81bd fbfe 593d 137d 2cbe
000001f0: dff7 6cbd 79f2 1a3e 5516 043e ac4a 55be

weight f4 [512, 128]
0.038694743 -0.04056313 0.014231051 -0.060542647 -0.049552318 -0.087960616 -0.051218998 -0.040784087
-0.08225158 -0.06788785 -0.09344124 -0.009771187 0.03872113 -0.027549982 -0.02969513 -0.059506413
-0.08034414 0.0063929423 0.046948113 0.011045709 -0.11458558 0.03640465 -0.08503864 0.0018996833
0.036519058 -0.08773426 -0.07297746 -0.034692325 -0.058626436 -0.08658747 -0.021394286 0.06802551
-0.12220865 -0.050538022 -0.08131774 -0.039472487 0.031196976 0.02304293 0.03647376 -0.011598474
-0.0031622371 -0.10499364 0.09770568 -0.07780319 -0.04224579 0.05906043 -0.116250046 -0.07865269
0.050715283 0.031498976 -0.04573766 -0.031361774 -0.042670693 -0.11974763 -0.04238585 -0.02180118
-0.013033246 -0.07708756 -0.08056978 -0.0884094 -0.11202794 -0.0462442 -0.080559626 -0.06932054
0.0008802685 -0.05598183 0.03847505 -0.050239243 -0.08139801 -0.040772382 -0.11138508 -0.14154668
-0.046507318 0.09916879 0.05339904 -0.10953717 -0.019223275 -0.12602614 -0.0647473 -0.0623101
-0.07493913 -0.08502739 -0.046345536 -0.0748177 -0.052000172 -0.010255066 -0.078925125 0.017777331
0.021736396 0.017909702 -0.009462833 0.026019746 -0.10706048 -0.058451153 -0.009776718 -0.076268576
-0.11201622 -0.0033116613 -0.060601324 -0.05662366 -0.08095828 0.024328416 -0.11089496 -0.04723628
-0.03498996 0.054572612 -0.11222239 0.047188304 -0.029866511 -0.070374474 -0.07305387 -0.13094905
0.009028188 0.03664262 0.052898444 -0.10382014 -0.022679541 0.04023247 -0.043796565 -0.035970405
-0.13991131 0.041670278 -0.12154461 -0.007091273 0.015115461 -0.12912098 -0.10553205 0.081652924
-0.11164939 0.15842985 0.0737192 -0.035192914 0.0012191946 -0.026251249 -0.030202363 -0.10762197
-0.17421216 0.12163013 0.08507636 -0.039800122 0.060765486 0.04861951 0.058774885 -0.21134543
-0.18119258 -0.12739265 -0.09766396 -0.05911584 0.07905462 -0.11344004 -0.014989736 -0.043548025
-0.10746067 -0.015541756 -0.140482 0.09809612 -0.0077064848 -0.07699869 -0.16546758 -0.0670307
-0.1561421 -0.02651445 -0.0277231 -0.056836795 -0.08149679 -0.09107897 -0.09903327 -0.11832999
0.01621146 -0.04079698 -0.14224204 -0.12994185 -0.10093106 0.06152553 0.02820395 -0.08721548
0.05163193 -0.09586742 -0.2634992 -0.045286816 -0.096750595 -0.071079575 -0.034151636 -0.13006377
-0.10603313 -0.115515776 0.1948753 -0.12890747 0.17628343 0.062249523 -0.24772081 0.1321569
-0.075329095 -0.08671034 -0.15429823 0.033049386 0.030299457 -0.07522971 -0.21855895 0.0647691
-0.003296347 0.077965274 -0.14035839 -0.11058356 -0.055217702 -0.02541435 -0.05275774 -0.12613174
-0.061382826 0.030765807 -0.1308875 -0.16997679 -0.08540285 0.02023115 -0.021133767 -0.037352774
0.085909985 -0.0056933872 0.21356161 -0.0426215 -0.07250788 -0.05450533 -0.06606308 -0.028188078
-0.07411075 0.2253133 -0.17269133 -0.015268216 0.028722161 0.02598205 -0.052955978 0.029162347
0.09786911 0.056324042 0.034839563 -0.06905375 -0.08574983 0.3453087 0.0018340007 -0.13727646
-0.1311142 0.022427604 0.023093723 -0.17652775 -0.02415139 0.046857815 0.0012947746 -0.04470911
-0.03657667 0.005687199 -0.12968276 -0.17546391 -0.10689784 -0.2164297 -0.09114238 0.12214588
00000000: 617e 1e3d 8625 26bd 5b29 693c 91fb 77bd
00000010: 5ff7 4abd b224 b4bd 03cb 51bd 370d 27bd
00000020: 8473 a8bd c908 8bbd 1f5e bfbd 5417 20bc
00000030: 0c9a 1e3d 80b0 e1bc 3443 f3bc ffbc 73bd
00000040: 788b a4bd e37b d13b aa4c 403d 10f9 343c
00000050: d8ab eabd 0b1d 153d bd28 aebd cbfe f83a
00000060: 0295 153d 05ae b3bd 3575 95bd 8a19 0ebd
00000070: 4622 70bd c554 b1bd 1243 afbc f550 8b3d
00000080: 8748 fabd f500 4fbd ea89 a6bd e7ad 21bd
00000090: cd90 ff3c 87c4 bc3c 8265 153d 8707 3ebc
000000a0: 893d 4fbb e806 d7bd ea19 c83d 4757 9fbd
000000b0: ec09 2dbd 59e9 713d 8114 eebd a914 a1bd
000000c0: d4ba 4f3d 1205 013d 6a57 3bbd 3475 00bd
000000d0: 77c7 2ebd 3f3e f5bd c99c 2dbd 6398 b2bc
000000e0: 6589 55bc 15e0 9dbd c501 a5bd fd0f b5bd
000000f0: e86e e5bd 8f6a 3dbd 72fc a4bd edf7 8dbd
00000100: d2c1 663a 344d 65bd 0498 1d3d aac7 4dbd
00000110: 00b4 a6bd f100 27bd dc1d e4bd 9df1 10be
00000120: 757e 3ebd 0219 cb3d f4b8 5a3d 0655 e0bd
00000130: 217a 9dbc ff0c 01be 3c9a 84bd e038 7fbd
00000140: b079 99bd d722 aebd d1d4 3dbd 063a 99bd
00000150: 22fe 54bd dd04 28bc 7fa3 a1bd c4a1 913c
00000160: 8710 b23c 5eb7 923c 000a 1bbc 5d27 d53c
00000170: 8642 dbbd 7a6a 6fbd 872e 20bc b332 9cbd
00000180: c368 e5bd 7508 59bb 1839 78bd 36ee 67bd
00000190: 74cd a5bd 634c c73c e61c e3bd d47a 41bd
000001a0: a251 0fbd 8887 5f3d dad4 e5bd 8648 413d
000001b0: 9daa f4bc 7e20 90bd 449d 95bd 8217 06be
000001c0: f7ea 133c 9216 163d 0aac 583d a79f d4bd
000001d0: 72ca b9bc cdca 243d 0764 33bd b455 13bd
000001e0: e944 0fbe 74ae 2a3d 61ec f8bd e95d e8bb
000001f0: d7a6 773c 4a38 04be 3021 d8bd a639 a73d
00000200: 6fa8 e4bd 6f3b 223e 18fa 963d 7226 10bd
00000210: 62cd 9f3a dc0c d7bc f26a f7bc e868 dcbd
00000220: ac64 32be 3819 f93d 843c ae3d 7405 23bd
00000230: 3be5 783d 4025 473d efbd 703d f06a 58be
00000240: 8c8a 39be 3873 02be 0b04 c8bd 7323 72bd
00000250: 63e7 a13d 4053 e8bd 8297 75bc 6a5f 32bd
00000260: 5714 dcbd d9a2 7ebc 83da 0fbe 9ee6 c83d
00000270: ae86 fcbb 7db1 9dbd 5570 29be 6447 89bd
00000280: b7e3 1fbe d534 d9bc 8e1b e3bc b3cd 68bd
00000290: cae7 a6bd 9c87 babd f4d1 cabd fe56 f2bd
000002a0: e5cd 843c bc1a 27bd e6a7 11be 7a0f 05be
000002b0: f2b4 cebd 3202 7c3d f80b e73c 089e b2bd
000002c0: 017c 533d 2356 c4bd 5ee9 86be ab7e 39bd
000002d0: 2d25 c6bd 2b92 91bd 96e2 0bbd 702f 05be
000002e0: e627 d9bd 8993 ecbd 648d 473e 5200 04be
000002f0: a583 343e 5bf9 7e3d 86aa 7dbe 2354 073e
00000300: 2446 9abd 3195 b1bd 5b00 1ebe cb5e 073d
00000310: 9136 f83c 0912 9abd ebcd 5fbe a9a5 843d
00000320: 8707 58bb 42ac 9f3d 1cba 0fbe a279 e2bd
00000330: f52b 62bd c131 d0bc 8018 58bd ae28 01be
00000340: 8f6c 7bbd 9308 fc3c 5f07 06be 650e 2ebe
00000350: b0e7 aebd ccbb a53c b920 adbc 39ff 18bd
00000360: 93f1 af3d 988f babb e5af 5a3e e293 2ebd
00000370: 037f 94bd fb40 5fbd 154c 87bd afea e6bc
00000380: 60c7 97bd 88b8 663e ffd5 30be 8a27 7abc
00000390: bd4a eb3c 4fd8 d43c 5ee8 58bd e0e5 ee3c
000003a0: 9a6f c83d 0ab4 663d eeb3 0e3d 0d6c 8dbd
000003b0: 9b9d afbd 4dcc b03e da62 f03a 3392 0cbe
000003c0: cd42 06be 18ba b73c 0c2f bd3c b1c3 34be
000003d0: 23d9 c5bc fbed 3f3d 6db5 a93a e620 37bd
000003e0: 6bd1 15bd af5b ba3b 8fcb 04be d0ac 33be
000003f0: 41ed dabd bf9f 5dbe dba8 babd 9e27 fa3d

bias f4 [512]
-0.058959316 -0.102816746 -0.05663042 -0.08424819 -0.027516298 0.11423589 0.101929344 -0.06676016
0.039188024 0.018323295 -0.0949475 0.03242111 -0.009222437 0.062721014 0.072704084 -0.0747624
-0.07310334 -0.0808661 -0.04399426 -0.12858002 -0.042802423 0.025941411 -0.02085236 0.044482518
0.061959013 -0.105672136 -0.10915058 0.040069584 0.06557748 0.057655692 -0.11924146 -0.038044427
-0.043435413 -0.1038004 0.05091829 0.10330424 0.059940796 -0.02349037 0.08403605 -0.054661337
0.15367335 0.116442546 0.085187435 -0.029991897 0.057302266 -0.07637269 0.02805479 -0.035579283
-0.015712507 -0.07172106 0.048258007 -0.05585573 0.14101103 -0.03964823 -0.033029284 -0.05351588
-0.08712634 0.13134192 -0.023586258 0.005670309 -0.11138428 0.055276863 0.10943695 0.05692907
-0.050022777 -0.08328599 -0.051139373 -0.13207851 0.13629304 0.008245498 -0.014026945 0.0018446271
-0.006311425 -0.09769625 0.0005507129 -0.15548056 -0.00958826 -0.08035923 0.06541284 0.041595563
-0.05138776 0.061792843 0.119902596 0.009445107 0.050779875 0.0015837951 0.09572891 -0.06399032
0.020300103 -0.04172399 -0.05082821 0.072927006 -0.024212794 0.06315133 0.08703997 0.07716414
-0.018915001 0.09306476 -0.051539667 -0.07666626 0.067901716 -0.053645644 -0.014656411 -0.03220352
-0.08057629 -0.006619689 -0.11798516 0.030636022 -0.055415694 0.08266718 0.08357457 -0.1100568
0.05712134 0.041192386 0.09716385 0.13554674 -0.035087164 0.04316126 0.016104199 -0.09429485
0.028482584 0.070625 0.035870805 0.041166738 -0.11776472 0.07249812 0.045945555 -0.0539921
-0.090913676 -0.07187142 0.048190713 -0.03558205 0.093788184 0.04480982 -0.102217816 0.12087782
0.094450146 -0.008513831 -0.017443849 -0.07193725 -0.022214625 -0.005151553 -0.055083435 -0.003291695
0.005069992 -0.123788044 -0.16603152 0.08378526 -0.093800426 -0.02689766 -0.12195922 -0.036464576
0.00087615143 -0.10017564 -0.06410757 0.012038796 -0.03952541 -0.07080132 -0.03797821 0.109566644
-0.0057978113 0.04488438 0.13932523 -0.04822748 0.035063963 0.12107773 0.03805987 0.06661577
0.034048688 -0.09032256 -0.017935663 0.047961798 -0.022368342 0.038648196 -0.05165746 -0.026357785
0.10702082 0.054075923 -0.10220906 0.03291654 -0.009127115 0.07851277 0.03666738 -0.02488022
0.02162249 -0.1343568 -0.08999583 -0.05447549 -0.07125013 -0.044890434 0.13999438 0.06285017
-0.041252907 0.02307226 -0.0020400628 -0.07817052 0.00457387 0.00017898908 0.008696523 0.07559257
0.10659721 0.10969512 -0.06599569 0.061050564 -0.016582906 -0.06881023 0.065662086 0.02077094
-0.052602496 0.018381013 -0.0013288815 -0.017182158 0.03606849 0.108490385 0.1134069 0.00047718268
-0.036110908 0.03806087 0.05043575 -0.024644328 0.054609116 0.08794066 -0.084702834 0.06037603
0.075123675 -0.06212847 -0.065761656 -0.06449708 -0.0406642 0.0025380435 -0.034861602 -0.012316229
-0.26139522 0.049653787 0.019752055 0.05760353 0.09625266 -0.029846968 0.052577 -0.042850673
0.010622542 -0.24080016 -0.08130777 0.060430847 -0.03857872 0.04268696 -0.083755165 0.0011535633
0.16131823 -0.07822803 0.027464146 0.14009029 -0.045264915 -0.14928441 0.019733291 -0.07582065
00000000: 537f 71bd 9691 d2bd 4df5 67bd 518a acbd
00000010: dc69 e1bc 82f4 e93d 55c0 d03d 8db9 88bd
00000020: 9f83 203d bc1a 963c d673 c2bd ffcb 043d
00000030: b419 17bc e073 803d e1e5 943d 071d 99bd
00000040: 34b7 95bd 209d a5bd 5333 34bd 7baa 03be
00000050: 9851 2fbd 1583 d43c 92d2 aabc 4d33 363d
00000060: bcc8 7d3d a26a d8bd 578a dfbd 0120 243d
00000070: 7c4d 863d 6028 6c3d de34 f4bd 79d4 1bbd
00000080: 55e9 31bd 4e95 d4bd b28f 503d 2c91 d33d
00000090: 7b84 753d e06e c0bc 181b ac3d 91e4 5fbd
000000a0: 8c5c 1d3e 6e79 ee3d c076 ae3d 91b1 f5bc
000000b0: c8b5 6a3d 4969 9cbd 29d3 e53c 95bb 11bd
000000c0: 84b7 80bc 7ee2 92bd 30aa 453d fac8 64bd
000000d0: 3265 103e 2f66 22bd b749 07bd 7833 5bbd
000000e0: 4b6f b2bd 7f7e 063e f837 c1bc 00ce b93b
000000f0: 711d e4bd fe69 623d 7b20 e03d 752e 693d
00000100: afe4 4cbd d891 aabd 8577 51bd 973f 07be
00000110: 6790 0b3e 2018 073c 46d1 65bc 6ac7 f13a
00000120: 12d0 cebb f914 c8bd b85d 103a 4c36 1fbe
00000130: 1418 1dbc 6193 a4bd 2bf7 853d 1c60 2a3d
00000140: f97b 52bd 7e1a 7d3d 7e8f f53d a6bf 1a3c
00000150: 8ffe 4f3d 5897 cf3a 850d c43d 5b0d 83bd
00000160: 674c a63c c6e6 2abd 3e31 50bd c15a 953d
00000170: e959 c6bc 7c55 813d 0342 b23d 3c08 9e3d
00000180: a2f3 9abc bd98 be3d 421b 53bd 3303 9dbd
00000190: 0e10 8b3d 89bb 5bbd 7121 70bc d7e7 03bd
000001a0: 2f05 a5bd fae9 d8bb 34a2 f1bd 65f8 fa3c
000001b0: 91fb 62bd 694d a93d 2529 ab3d 7665 e1bd
000001c0: 11f8 693d 59b9 283d d7fd c63d c4cc 0a3e
000001d0: 8fb7 0fbd ddc9 303d f4ec 833c a91d c1bd
000001e0: 4f54 e93c d7a3 903d 44ed 123d 749e 283d
000001f0: a12e f1bd e579 943d 6831 3c3d d226 5dbd
00000200: f330 babd 5331 93bd a063 453d 7cbe 11bd
00000210: 0514 c03d 808a 373d 9357 d1bd ca8e f73d
00000220: 146f c13d 987d 0bbc 67e6 8ebc d653 93bd
00000230: 72fb b5bc 5cce a8bb 2b9f 61bd 7ab9 57bb
00000240: 2d22 a63b 9684 fdbd 2b04 2abe 9b97 ab3d
00000250: 701a c0bd 7b58 dcbc c1c5 f9bd e15b 15bd
00000260: 87ad 653a e328 cdbd d44a 83bd 5f3e 453c
00000270: 65e5 21bd 4800 91bd 0a8f 1bbd 7a64 e03d
00000280: 91fb bdbb afd8 373d 46ab 0e3e 2e8a 45bd
00000290: 3b9f 0f3d 9af7 f73d abe4 1b3d d96d 883d
000002a0: a376 0b3d 09fb b8bd d0ed 92bc 9773 443d
000002b0: d03d b7bc 924d 1e3d c696 53bd 48ec d7bc
000002c0: bb2d db3d b77e 5d3d fc52 d1bd 7ed3 063d
000002d0: e589 15bc 4ecb a03d 8930 163d 9ad1 cbbc
000002e0: a621 b13c d494 09be bc4f b8bd b121 5fbd
000002f0: 97eb 91bd 08df 37bd b05a 0f3e 97b7 803d
00000300: cff8 28bd 0902 bd3c 93b2 05bb de17 a0bd
00000310: 67e0 953b 04af 3b39 dc7b 0e3c 47d0 9a3d
00000320: a34f da3d d6a7 e03d c028 87bd 2810 7a3d
00000330: e0d8 87bc 61ec 8cbd d879 863d d227 aa3c
00000340: b775 57bd c793 963c dd2d aeba 99c1 8cbc
00000350: 8ebc 133d 3530 de3d e041 e83d 602e fa39
00000360: 08e9 13bd b7e5 1b3d b895 4e3d e7e2 c9bc
00000370: cfad 5f3d 3c1a b43d ae78 adbd db4c 773d
00000380: 71da 993d 6c7a 7ebd 0cae 86bd 0c17 84bd
00000390: 818f 26bd 4e55 263b 0acb 0ebd 02ca 49bc
000003a0: 98d5 85be c561 4b3d 10cf a13c aef1 6b3d
000003b0: 1d20 c53d a181 f4bc fb5a 573d 3084 2fbd
000003c0: 2c0a 2e3c 5194 76be b084 a6bd 5686 773d
000003d0: b804 1ebd 86d8 2e3d d487 abbd 2933 973a
000003e0: 9b30 253e 0436 a0bd 7dfc e03c d473 0f3e
000003f0: b467 39bd 03de 18be b6a7 a13c db47 9bbd

weight f4 [256, 512]
0.047851022 -0.050471716 0.011740319 -0.045403283 0.16969281 0.06702282 0.06477512 -0.052355427
0.19114271 0.042432547 0.036156178 -0.0066625676 0.080597185 0.21255785 0.09493143 0.20592941
-0.029994395 0.12922522 0.040597174 0.03873295 -0.044321354 -0.25982842 -0.10003256 0.04676145
0.055880103 -0.0054881107 -0.0335507 0.053216092 -0.08847929 -0.03886349 -0.04726998 0.07822265
-0.03376848 0.010324753 -0.11052848 -0.15603001 -0.14368628 0.1522705 0.14771594 0.07998938
-0.25719878 0.24038552 0.02198973 -0.15660527 -0.02351017 0.030410659 0.06355718 -0.0040292367
-0.05780659 0.13370225 -0.13909282 0.060935684 -0.03410756 -0.015324319 -0.008915996 -0.006933647
-0.2365506 -0.11981062 -0.012663532 0.009126381 -0.03453232 -0.15906358 0.044094093 0.08805795
-0.0026875217 0.038254723 0.13027874 -0.26064798 0.021342296 -0.14605595 0.20394367 0.017899778
0.007951064 0.016127016 -0.04767871 0.18385604 -0.28349417 -0.04770665 -0.048111655 -0.020117315
0.082050025 -0.032721568 -0.020077648 0.011932788 0.2244123 0.075968124 -0.01429688 0.0036833405
0.29980978 0.07739327 -0.03552591 0.031409323 0.05902308 0.042928737 0.23731972 0.12846994
0.011138939 -0.028538173 0.12100101 -0.13803226 -0.031873364 -0.050532248 0.097818345 0.07390217
0.061144132 0.15835007 -0.018849693 0.24271758 0.053221922 -0.07231306 -0.023643974 0.029678999
0.106138214 0.16020009 0.18279645 0.079418495 -0.0812474 0.0663129 -0.10315856 0.022403764
-0.28027865 0.029190443 0.093402766 0.18894646 0.16131565 0.044429023 -0.0049308836 0.016711581
0.0063620117 -0.055194937 -0.07965702 0.008588127 0.09324081 0.0588321 0.035701763 -0.07035953
0.039599646 0.12651385 0.07049761 -0.007300451 0.031151243 0.11255731 0.007512666 0.026452133
-0.06776226 0.003447709 0.010997212 -0.09385168 -0.010535522 0.06838002 -0.032018915 -0.040630132
0.06488353 -0.010290743 0.07620445 -0.05100917 0.04585125 0.06772312 -0.023056528 0.032300334
-0.026563613 -0.09624708 -0.03563755 0.15188846 0.068732224 0.009272746 -0.06533121 0.042918906
0.021261042 0.12424314 0.0050288183 -0.13516434 -0.040792592 0.13537373 0.022707513 0.03139686
-0.18248257 0.0070569008 0.045592904 0.03595718 0.180215 -0.11139171 -0.012536244 0.07254155
-0.023073208 -0.034558363 -0.032706205 0.16653375 -0.054762315 0.06307644 0.05066397 0.014304053
-0.00040205548 0.05830001 -0.03133991 0.061011974 0.07808607 0.041293103 -0.0075414167 0.0011754546
-0.005153058 0.06031451 0.11766452 -0.014415047 0.15704301 0.028438345 0.022916188 -0.06274328
-0.044654835 -0.007912678 0.065464355 0.14870067 0.20042138 -0.11390321 -0.006177166 -0.19589315
0.0064183166 0.18416555 0.07565266 0.07293236 0.082450345 0.0497114 0.052569877 0.0124763185
0.008466395 0.17433819 0.03284841 -0.21126756 0.03136523 0.014340887 0.21331133 -0.06620299
-0.19067357 0.0514201 -0.19227156 0.015133416 0.06266273 0.032121602 0.06779444 0.015579971
-0.05531297 -0.24728414 0.009575184 0.11193923 0.016463282 0.08512098 0.020439643 -0.00075287133
-0.17102171 0.0046654954 0.052934214 -0.13389646 -0.04724386 -0.111557044 0.035314176 0.0055907303
00000000: 6fff 433d 6ebb 4ebd 785a 403c cbf8 39bd
00000010: f4c3 2d3e 4343 893d d1a8 843d a572 56bd
00000020: eaba 433e c0cd 2d3d 8018 143d ab51 dabb
00000030: 2310 a53d c4a8 593e 696b c23d 29df 523e
00000040: ceb6 f5bc 9e53 043e 3949 263d 71a6 1e3d
00000050: 4f8a 35bd 3b08 85be dfdd ccbd ef88 3f3d
00000060: 89e2 643d 9cd5 b3bb 756c 09bd 1ef9 593d
00000070: a134 b5bd 532f 1fbd 2b9e 41bd 3233 a03d
00000080: d150 0abd 2729 293c c15c e2bd 55c6 1fbe
00000090: 7f22 13be ccec 1b3e d942 173e 79d1 a33d
000000a0: 8faf 83be 9f27 763e ce23 b43c 225d 20be
000000b0: 6698 c0bc c61f f93c 442a 823d b007 84bb
000000c0: 9ac6 6cbd 3ee9 083e 596e 0ebe b297 793d
000000d0: 5eb4 0bbd da12 7bbc 6614 12bc a633 e3bb
000000e0: 523a 72be 455f f5bd b47a 4fbc d186 153c
000000f0: c371 0dbd 90e1 22be 029c 343d ba57 b43d
00000100: 2221 30bb fcb0 1c3d ca67 053e a773 85be
00000110: 0ad6 ae3c b18f 15be 9cd6 503e 8ea2 923c
00000120: 2e45 023c ce1c 843c c04a 43bd c244 3c3e
00000130: 2626 91be 0c68 43bd ba10 45bd 11cd a4bc
00000140: d809 a83d 0d07 06bd e179 a4bc be81 433c
00000150: 57cc 653e 2d95 9b3d 763d 6abc 3364 713b
00000160: ab80 993e 5d80 9e3d 9e83 11bd 10a7 003d
00000170: 2fc2 713d 0bd6 2f3d f103 733e a08d 033e
00000180: 1980 363c e3c8 e9bc 61cf f73d 5458 0dbe
00000190: a58d 02bd e7fa 4ebd fc54 c83d 055a 973d
000001a0: 4572 7a3d 8526 223e ac6a 9abc f58a 783e
000001b0: 3bff 593d df18 94bd 02b1 c1bc 5f21 f33c
000001c0: fe5e d93d 7e0b 243e fe2e 3b3e 2aa6 a23d
000001d0: 0965 a6bd 0fcf 873d cc44 d3bd 1988 b73c
000001e0: af80 8fbe cc20 ef3c f349 bf3d 2e7b 413e
000001f0: ee2f 253e 35fb 353d 4093 a1bb bae6 883c
00000200: 6c78 d03b 1614 62bd 3823 a3bd 37b5 0c3c
00000210: 0af5 be3d eef9 703d 033c 123d a818 90bd
00000220: 3d33 223d d98c 013e 0d61 903d 9f38 efbb
00000230: e430 ff3c 7284 e63d cf2c f63b 25b2 d83c
00000240: f1c6 8abd f5f2 613b a62d 343c 4f35 c0bd
00000250: 2f9d 2cbc d30a 8c3d 4426 03bd c86b 26bd
00000260: a8e1 843d 819a 28bc 1411 9c3d feee 50bd
00000270: 85ce 3b3d 6bb2 8a3d 0be1 bcbc 5b4d 043d
00000280: ef9b d9bc 301d c5bd aef8 11bd a688 1b3e
00000290: 7bc3 8c3d b7ec 173c 5fcc 85bd bccb 2f3d
000002a0: a32b ae3c 3073 fe3d c9c8 a43b 8568 0abe
000002b0: 2216 27bd 699f 0a3e 1b05 ba3c fe99 003d
000002c0: b6dc 3abe 933d e73b a0bf 3a3d d647 133d
000002d0: 488a 383e 5621 e4bd d164 4dbc aa90 943d
000002e0: 0604 bdbc 128d 0dbd f1f6 05bd d387 2a3e
000002f0: 734e 60bd 382e 813d 0685 4f3d 8c5b 6a3c
00000300: f9ca d2b9 fecb 6e3d 475e 00bd b1e7 793d
00000310: 97eb 9f3d f522 293d fd1d f7bb b611 9a3a
00000320: fcda a8bb 590c 773d 19fa f03d 172d 6cbc
00000330: e2cf 203e 88f7 e83c bbba bb3c 8c7f 80bd
00000340: fde7 36bd 2da4 01bc 2d12 863d fd44 183e
00000350: 433b 4d3e 1646 e9bd d369 cabb 3798 48be
00000360: be50 d23b e595 3c3e c8ef 9a3d 905d 953d
00000370: badb a83d 2e9e 4b3d 8353 573d 7969 4c3c
00000380: a2b6 0a3c b685 323e 0e8c 063d 8656 58be
00000390: d478 003d 0af6 6a3c 496e 5a3e 6f95 87bd
000003a0: ef3f 43be e29d 523d d6e2 44be 26f2 773c
000003b0: 5155 803d f191 033d d0d7 8a3d 2243 7f3c
000003c0: da8f 62bd 0e38 7dbe 3ce1 1c3c 6540 e53d
000003d0: 01de 863c e953 ae3d 0a71 a73c 575c 45ba
000003e0: 5120 2fbe 03e1 983b 8cd1 583d 271c 09be
000003f0: c782 41bd 0578 e4bd 99a5 103d 7232 b73b

bias f4 [256]
0.07375491 0.032701116 0.07970594 -0.0071580065 -0.073456295 -0.05750961 0.09271536 -0.056614283
0.09561 -0.051350486 -0.027966354 0.16215514 -0.029221745 0.059265774 0.011943389 -0.0316764
-0.0121284975 -0.0016522863 0.18837173 0.06566111 0.023266563 0.13406707 -0.07390358 -0.06650013
-0.016842378 -0.06941424 -0.016798545 -0.03230037 0.0743699 0.28325665 -0.06711042 -0.015840732
0.06925422 0.09758657 0.10049312 0.051675174 0.041266292 0.039307795 0.0042132726 0.10472106
0.05512327 -0.03556335 0.007817603 0.14628062 -0.052072506 0.10157914 -0.102137 0.015211505
-0.048214886 0.007077154 -0.0056901355 0.04297894 -0.005333377 0.015796836 -0.018914042 0.03218492
0.019611683 0.17413302 -0.01689782 -0.007318424 0.0754788 -0.06949658 -0.019196771 0.049872193
-0.0019209114 -0.049079627 -0.010841532 -0.02281696 -0.009807186 -0.030581133 0.061023556 0.033637084
-0.036245342 0.04159753 -0.04714026 0.027585229 -0.034984067 0.03882309 -0.028999245 -0.00688184
-0.07059343 -0.0110704005 0.018187184 0.07759461 0.045382034 0.049040597 0.031892974 0.14481059
0.119738474 0.11389959 -0.039234266 -0.02916589 0.081847124 0.012982005 0.006741036 -0.06711719
0.14078572 -0.09894349 0.047679562 -0.06368887 -0.06253322 -0.06874128 0.03446043 -0.042923976
-0.06740742 0.068270326 -0.025883084 0.008066807 -0.012589529 -0.0050528864 0.042197 -0.05940662
-0.062454026 0.063652486 -0.062486034 -0.0034338958 -0.016151337 -0.17311035 0.0007675417 -0.004227303
-0.030124033 -0.011766574 -0.05885449 -0.054503568 0.043370083 0.0711101 0.06872853 -0.067475975
-0.06193517 0.008754106 -0.024744548 -0.025893439 -0.04299614 0.017634895 -0.09182033 0.082856774
0.05826434 -0.048497256 -0.07900742 0.29639414 -0.024432797 -0.0058108163 -0.050557017 -0.01089378
-0.0660834 -0.037614737 0.03994184 0.03873269 0.20892012 -0.07809307 -0.052798107 -0.0423963
-0.07376132 0.33231637 -0.06166329 0.008077736 -0.025007688 0.101175755 0.055191003 0.009096615
-0.032296687 -0.06687428 0.07649982 -0.010513779 0.08793569 -0.05765243 -0.020359445 -0.07290081
-0.006606922 0.18290868 0.073806964 -0.010574804 -0.07352503 0.0759923 -0.013562895 0.0035309198
-0.01589389 -0.013846526 -0.04011586 -0.00898919 -0.009323037 0.045797236 -0.014477963 -0.010501486
-0.023543382 -0.04204925 -0.017821541 -0.02070415 0.026162846 0.02198561 -0.049403727 0.09990107
-0.027075548 -0.040487096 -0.07064139 -0.018430235 0.14091039 -0.019822555 0.046983443 -0.07528944
-0.056167774 -0.07975184 1.620382e-05 0.041366294 0.013850605 -0.024397617 0.0021061706 -0.052799623
0.019531857 -0.04576915 -0.04780033 0.0042330907 0.20182495 -0.04965031 -0.07397424 -0.0805358
0.05224156 -0.016929993 0.06936265 -0.028685916 -0.0560237 -0.0012409984 -0.022472756 -0.0022360159
-0.046749674 0.026015606 -0.02558568 0.14983639 -0.0564778 -0.0036044272 0.049174685 -0.019162294
0.06469327 0.12781233 0.015111521 -0.053507145 -0.01132611 0.024924912 0.009453669 -0.043064326
0.1017387 -0.067911826 0.065369 0.057590622 -0.048419498 0.0106795905 0.057300564 0.38666478
-0.024560744 -0.008141669 -0.056268755 -0.07305915 -0.036316227 0.052554116 0.021092458 -0.08999926
00000000: d00c 973d 9bf1 053d de3c a33d b68d eabb
00000010: 4170 96bd 328f 6bbd 8de1 bd3d 61e4 67bd
00000020: 2dcf c33d e354 52bd b219 e5bc ff0b 263e
00000030: 7162 efbc abc0 723d 34ae 433c 1dbf 01bd
00000040: 9bb6 46bc 8791 d8ba 85e4 403e 5579 863d
00000050: 8599 be3c e148 093e c35a 97bd 3831 88bd
00000060: 07f9 89bc 0e29 8ebd 1a9d 89bc 654d 04bd
00000070: 3f4f 983d 0407 913e 3071 89bd 6cc4 81bc
00000080: 28d5 8d3d 78db c73d 56cf cd3d 59a9 533d
00000090: d806 293d 3601 213d 7e0f 8a3b ff77 d63d
000000a0: f0c8 613d e0aa 11bd 6715 003c 96ca 153e
000000b0: fb49 55bd b908 d03d 342d d1bd ad39 793c
000000c0: f97c 45bd 78e7 e73b 5174 babb af0a 303d
000000d0: 9cc3 aebb 5e68 813c 9ff1 9abc 56d4 033d
000000e0: aea8 a03c ed4f 323e 4c6d 8abc 64cf efbb
000000f0: a194 9a3d 3954 8ebd 8c42 9dbc c946 4c3d
00000100: 17c7 fbba b807 49bd aea0 31bc a2ea babc
00000110: 52ae 20bc 4985 fabc d6f3 793d 0ac7 093d
00000120: ff75 14bd 2c62 2a3d 2516 41bd 6bfa e13c
00000130: 744b 0fbd f604 1f3d d38f edbc 0f81 e1bb
00000140: 4a93 90bd a060 35bc 4afd 943c ece9 9e3d
00000150: 83e2 393d cbde 483d 35a2 023d 3a49 143e
00000160: 7239 f53d 3044 e93d 1cb4 20bd 4eed eebc
00000170: 779f a73d 7ab2 543c e9e3 dc3b bd74 89bd
00000180: 222a 103e e2a2 cabd a54b 433d 4f6f 82bd
00000190: 6b11 80bd 3ac8 8cbd 6126 0d3d 0dd1 2fbd
000001a0: e70c 8abd 50d1 8b3d c308 d4bc a42a 043c
000001b0: 5044 4ebc af92 a5bb c3d6 2c3d 5b54 73bd
000001c0: cbcf 7fbd 3c5c 823d 5bf1 7fbd 360b 61bb
000001d0: cf4f 84bc d743 31be da34 493a 3085 8abb
000001e0: adc6 f6bc 97c8 40bc 6811 71bd 223f 5fbd
000001f0: d4a4 313d 2ca2 913d 8bc1 8c3d d830 8abd
00000200: bcaf 7dbd 626d 0f3c 14b5 cabc 7a1e d4bc
00000210: b81c 30bd 0e77 903c 4c0c bcbd d0b0 a93d
00000220: 97a6 6e3d 0fa5 46bd a4ce a1bd f9c0 973e
00000230: 4a27 c8bc a968 bebb e014 4fbd d37b 32bc
00000240: bc56 87bd e911 1abd 0e9a 233d 2ba6 1e3d
00000250: 28ef 553e 42ef 9fbd d442 58bd bea7 2dbd
00000260: 2d10 97bd 5f25 aa3e a592 7cbd 7b58 043c
00000270: ecdc ccbc 3c35 cf3d f60f 623d f809 153c
00000280: 8849 04bd 62f5 88bd f0ab 9c3d fc41 2cbc
00000290: a117 b43d f424 6cbd dac8 a6bc 054d 95bd
000002a0: e17e d8bb 6a4c 3b3e 1b28 973d f141 2dbc
000002b0: 4a94 96bd daa1 9b3d e836 5ebc 0167 673b
000002c0: e733 82bc 8adc 62bc 8750 24bd 6547 13bc
000002d0: a7bf 18bc e295 3b3d fa34 6dbc 6d0e 2cbc
000002e0: 0dde c0bc d63b 2cbd 7bfe 91bc c09b a9bc
000002f0: 7753 d63c 2a1b b43c 905b 4abd ef98 cc3d
00000300: 8acd ddbc ccd5 25bd 6fac 90bd 01fb 96bc
00000310: d04a 103e e962 a2bc b671 403d 5a31 9abd
00000320: 2e10 66bd ef54 a3bd 70ed 8737 b46f 293d
00000330: a6ed 623c 83dd c7bc ae07 0a3b 6b44 58bd
00000340: 4601 a03c 6f78 3bbd 47ca 43bd bdb5 8a3b
00000350: 33ab 4e3e 205e 4bbd ce7f 97bd f4ef a4bd
00000360: 3ffb 553d c5b0 8abc 010e 8e3d bafe eabc
00000370: 1b79 65bd ffa8 a2ba c918 b8bc 1f8a 12bb
00000380: 967c 3fbd ae1e d53c 0f99 d1bc b66e 193e
00000390: 4455 67bd 4138 6cbb 656b 493d 3efa 9cbc
000003a0: e87d 843d 3ce1 023e 5096 773c 4f2a 5bbd
000003b0: 2691 39bc 542f cc3c 90e3 1a3c 3864 30bd
000003c0: 615c d03d 5b15 8bbd 2fe0 853d 25e4 6b3d
000003d0: 8653 46bd 73f9 2e3c ffb3 6a3d edf8 c53e
000003e0: 9d33 c9bc a364 05bc 117a 66bd 09a0 95bd
000003f0: 53c0 14bd fc42 573d 17ca ac3c 8851 b8bd

weight f4 [8, 256]
0.052446 -0.009785706 -0.01734169 -0.01885885 0.05091559 -0.027374081 0.05328363 -0.028458942
-0.081694834 -0.0077993763 0.048522454 0.04718244 -0.02545703 0.028588952 -0.006705434 -0.018398568
0.012176808 0.023265334 -0.21550608 0.08131334 0.017858725 0.014827428 0.012722424 -0.03240946
0.029799754 0.0051984363 -0.031678155 -0.016684588 -0.012316294 -0.1531401 -0.011140339 0.065348424
0.07870613 0.0032716503 0.025144644 0.082206406 0.015546469 0.06977485 0.074286684 0.06768029
0.008010409 -0.13368928 0.05729443 -0.07444295 -0.024928352 -0.09995608 -0.0074872863 -0.01614951
0.02008447 -0.03176505 0.030500276 0.04135879 0.061140403 0.029671011 -0.21345688 0.0045675067
0.0770042 -0.01563518 -0.02846417 -0.025075605 0.04163173 -0.06291274 0.016998118 0.080369174
0.035401475 0.0671642 -0.008008458 -0.025912274 -0.021735145 0.03573774 0.108593 0.043505475
0.08345605 0.06926489 0.053189274 0.11333872 0.032063566 -0.036646612 0.0054422035 -0.014400426
0.0039025226 0.016183082 0.008835318 0.017369552 0.025209947 0.075543374 0.0037386063 0.06115823
-0.028573252 0.045685392 0.039901327 0.051749058 -0.012057805 -0.022234574 0.043043215 0.011540991
-0.03730885 0.072185256 -0.004849967 -0.0077338307 -0.01176091 -0.014741806 0.07509491 -0.020604655
-0.012289713 -0.11839852 0.0028904823 -0.012991871 -0.017258825 0.038973585 0.024288114 0.011813272
-0.00034982996 0.091839544 -0.019420464 0.019540647 0.0012434387 -0.0814869 -0.026559604 0.0353498
0.056661047 0.01941181 0.027247854 -0.0019663046 -0.17966956 0.013434524 -0.18247597 -0.0029830737
-0.0115341 -0.009781834 0.058924362 -0.009924608 -0.000539752 0.06919335 0.021172717 0.034775738
-0.011578144 0.028247423 0.052327447 0.10919754 -0.011262824 0.017430093 0.049579617 0.024308028
0.0012997176 -0.02545836 -0.011716887 0.07044223 -0.0505721 0.12821405 0.03380172 -0.009686585
-0.009681365 -0.13857335 0.027117275 -0.025727767 -0.03133555 0.053462163 -0.030068148 -0.08797547
-0.005003954 0.014581176 -0.017955342 -0.08968052 0.03800696 0.011694645 0.06333957 0.0075379377
0.0351247 0.04390707 0.024427047 0.042272687 -0.02403814 0.047874022 0.033259563 -0.026703592
-0.022648199 0.08566436 0.0423759 -0.019382555 -0.008870478 0.106677264 0.03549305 -0.015265847
-0.03198327 -0.0065257233 0.006052945 -0.0015091993 0.0928734 0.07194671 0.07524414 0.08226296
0.082339406 0.041917905 0.012563892 0.048001904 -0.051969443 0.0076784045 0.0074037425 0.081207424
-0.019211464 -0.0035940914 -0.038386215 0.051904514 -0.008251587 0.08652249 -0.018536592 -0.009756058
0.04133039 -0.025536831 0.009491415 -0.018520437 -0.025179632 -0.014009504 -0.008103868 0.04363459
0.04744785 -0.018982269 0.080555856 -0.008567932 0.03395681 0.075665675 0.034451 -0.029198365
-0.008818106 0.05242862 0.06992552 -0.034306616 -0.0014203453 0.09233828 0.067335196 -0.0186276
-0.157364 0.015218982 0.049605314 -0.012914688 -0.0049526584 0.026266512 -0.013847448 -0.030284448
0.020266283 -0.010592013 0.009047828 -0.019837907 0.03433962 0.013868364 0.07301812 0.060890164
-0.013181769 -0.01948354 0.02441348 0.010290861 -0.030551909 0.022150435 0.06116695 0.013502792
00000000: 9ed1 563d 3a54 20bc 2910 8ebc e07d 9abc
00000010: de8c 503d 9c3f e0bc f03f 5a3d ba22 e9bc
00000020: 9f4f a7bd e991 ffbb 7bbf 463d 6042 413d
00000030: 438b d0bc 6133 ea3c 42b9 dbbb 98b8 96bc
00000040: 3c81 473c f196 be3c a0ad 5cbe 9c87 a63d
00000050: 764c 923c beee 723c b771 503c c8bf 04bd
00000060: 9d1e f43c a557 aa3b f4c0 01bd 1eae 88bc
00000070: 48ca 49bc c2d0 1cbe f885 36bc 65d5 853d
00000080: ae30 a13d 2f69 563b 24fc cd3c d55b a83d
00000090: 9eb6 7e3c 1ee6 8e3d 9e23 983d f79b 8a3d
000000a0: 173e 033c d8e5 08be 90ad 6a3d 8c75 98bd
000000b0: 8b36 ccbc c6b5 ccbd e957 f5bb fa4b 84bc
000000c0: 3088 a43c 121c 02bd b7db f93c d667 293d
000000d0: 5c6e 7a3d 9f10 f33c 7194 5abe 06ab 953b
000000e0: 61b4 9d3d 5915 80bc b12d e9bc 5b6b cdbc
000000f0: 0886 2a3d 65d8 80bd a33f 8b3c 9898 a43d
00000100: 2301 113d 628d 893d e835 03bc fa45 d4bc
00000110: e70d b2bc bd61 123d 0266 de3d cc32 323d
00000120: 01eb aa3d c0da 8d3d ffdc 593d 211e e83d
00000130: 1655 033d c21a 16bd 8354 b23b c4ef 6bbc
00000140: 77c1 7f3b 6292 843c 02c2 103c 974a 8e3c
00000150: 1785 ce3c 7cb6 9a3d 6803 753b 0d81 7a3d
00000160: 7412 eabc 9b20 3b3d 936f 233d d2f6 533d
00000170: 1a8e 45bc 4825 b6bc 154e 303d 6d16 3d3c
00000180: 2ad1 18bd ddd5 933d 79ec 9ebb 136c fdbb
00000190: d5b0 40bc 9e87 71bc 5ccb 993d 18cb a8bc
000001a0: cb5a 49bc ec7a f2bd 3f6e 3d3b dbdb 54bc
000001b0: 6162 8dbc c4a2 1f3d def7 c63c 748c 413c
000001c0: 6269 b7b9 5f16 bc3d aa17 9fbc b513 a03c
000001d0: e1fa a23a 9be2 a6bd 8793 d9bc f4ca 103d
000001e0: 6a15 683d 8405 9f3c e436 df3c 1edd 00bb
000001f0: 4cfb 37be 7a1c 5c3c fbda 3abe ac7f 43bb
00000200: 86f9 3cbc fc43 20bc ac5a 713d d39a 22bc
00000210: 257e 0dba 3eb5 8d3d 6872 ad3c 0171 0e3d
00000220: 41b2 3dbc 2467 e73c 4e55 563d f6a2 df3d
00000230: b587 38bc 8ec9 8e3c ff13 4b3d a121 c73c
00000240: 495b aa3a 0d8e d0bc 30f8 3fbc 0444 903d
00000250: b124 4fbd 8b4a 033e ac73 0a3d 7bb4 1ebc
00000260: 979e 1ebc 2ce6 0dbe 0c25 de3c 0ac3 d2bc
00000270: b559 00bd 24fb 5a3d 7a51 f6bc 7c2c b4bd
00000280: 35f8 a3bb e3e5 6e3c 1517 93bc 6caa b7bd
00000290: 30ad 1b3d e59a 3f3c 2db8 813d ce00 f73b
000002a0: ebde 0f3d e6d7 333d 3b1b c83c 2026 2d3d
000002b0: a2eb c4bc 8d17 443d 2e3b 083d 7ec1 dabc
000002c0: b788 b9bc cc70 af3d 5a92 2d3d 2ac8 9ebc
000002d0: 7b55 11bc 9c79 da3d 2961 113d 9a1d 7abc
000002e0: e400 03bd bcd5 d5bb c857 c63b 53d0 c5ba
000002f0: 6934 be3d cc58 933d 9a19 9a3d 7c79 a83d
00000300: 90a1 a83d 1cb2 2b3d c8d8 4d3c a59d 443d
00000310: e9dd 54bd 209b fb3b 189b f23b 1450 a63d
00000320: 5c61 9dbc d98a 6bbb dd3a 1dbd d499 543d
00000330: aa31 07bc b432 b13d 0dda 97bc e0d7 1fbc
00000340: 0e4a 293d 9e32 d1bc e181 1b3c 2cb8 97bc
00000350: 8445 cebc 1e88 65bc 16c6 04bc 2fba 323d
00000360: ad58 423d b480 9bbc 78fa a43d 8360 0cbc
00000370: 4c16 0b3d 9bf6 9a3d 7e1c 0d3d 6931 efbc
00000380: d179 10bc 65bf 563d 1c35 8f3d 1885 0cbd
00000390: e12a baba da1b bd3d 09e7 893d e998 98bc
000003a0: 0724 21be 0959 793c f12e 4b3d 2198 53bc
000003b0: e949 a2bb de2c d73c 68e0 62bc 1717 f8bc
000003c0: 7a05 a63c 1f8a 2dbc 573d 143c 1b83 a2bc
000003d0: b4a7 0c3d 2238 633c 868a 953d f767 793d
000003e0: 59f8 57bc f29b 9fbc c7fe c73c 009b 283c
000003f0: ff47 fabc d474 b53c 328a 7a3d d13a 5d3c

bias f4 [8]
-0.042214077 -0.018728746 -0.10612013 -0.053870138 0.03024816 0.07994383 0.07137516 0.081911124
00000000: abe8 2cbd 076d 99bc 8355 d9bd efa6 5cbd
00000010: fdca f73c 97b9 a33d 242d 923d 05c1 a73d
